ov3/assignment3/checkpoints/4563.ckpt (torch, 918864 bytes, 22 tensors)

feature_extractor.0.weight f4 [32, 3, 5, 5]
00000000: 4ef2 973d 9f7b aa3d abf6 80bd 83e9 e5bd
00000010: 0156 d4bd bdd4 b03d b2e2 a8bd 18f8 41bd
00000020: bb82 1abe 708a 72bd 4c89 5cbd a7d3 24be
00000030: e191 94be e7bc 50be 208b 98bd 0723 84ba
00000040: cbc5 23bc 5878 8f3c 117a 33bd 5f3c 123d
00000050: 9570 313e 2013 2e3e 4de8 773d 7b5f 473e
00000060: e6ce d13d 02e9 773d addb f03d 4bde 74bd
00000070: e813 abbd 29f4 d0bd 3352 abbb efd0 0a3d
00000080: c603 29be 6706 11be 0a7a 29be 7a98 13be
00000090: 811e 45be ab9f 21bd 92a6 2ebd 0a81 a13c
000000a0: 5088 57bd 6d04 11be 872e 39bd 44c5 d4bd
000000b0: cc65 73bd 1ce8 01bd c841 853d b750 943d
000000c0: f079 20bd ff3e c13b 8dc9 913d 9568 053e
000000d0: b33e 0f3e 9902 893d 34c1 443d 020a dfbc
000000e0: 67d5 333c df1f b4bd ac99 99bd cbaf 8cbd
000000f0: 6938 693d f691 1e3b a4e2 d0bd 3cf2 253d
00000100: fe57 e13d 8264 f3bc 9927 f9bb 3d87 3c3d
00000110: 87b4 1d3e 2aeb 493e a7d5 84bd 27b5 febc
00000120: da3a a43d 1a7d 0c3e 98b9 f83d 5fae 1f3e
00000130: 7670 2f3e 469a 70bd 3b63 ddbd 879c aabc
00000140: 24cd 4d3d 04c9 a7bd ff6f 8fbe a7b8 06be
00000150: 64a8 893e 9f90 e6bd b709 b0be 6b20 29bd
00000160: 6225 e63e 0e62 973d 4c4c 5cbd 9d27 993d
00000170: cce9 b23e 9be7 d33d eaff b4be 9986 8cbc
00000180: 16d6 133e 3a89 043d 0205 6abe 0118 a13b
00000190: 316b 623e 4622 873e c6a1 82bc 702e 4bbe
000001a0: 2a93 e8bd 47b1 4c3e 44ef 65be 68d4 e3be
000001b0: 8edd 91bd 5cc9 523e 6a28 d9bd 57a5 57be
000001c0: 7a98 53bd de20 e83e e288 1e3e 6a8a 22be
000001d0: bee9 aa3c 6b18 873e b323 d23c b1f6 81be
000001e0: 689e af3d add3 853d 5bfe abbd 9db3 0ebe
000001f0: c1ea c2bd 8395 93bc 4d06 0c3e 2c50 48bc
00000200: 7a47 45be b88e cfbd 7f34 0e3e 58aa e8bd
00000210: 5a72 d1be 50d3 a9bd 5af2 663e c01a fbbd
00000220: 45da 99be 0af2 4c3c ef91 bd3e 9b3e 213e
00000230: 0150 673a 9970 d03d 23e6 c63e b0ca 9a3d
00000240: f7d8 93be 00f3 31bd 8266 093e 0325 ad3b
00000250: 4519 1fbe ae50 163d 7533 0abe 98bd 03be
00000260: f393 2a3d e2c4 8a3e 8ca7 6e3e 811e bfbd
00000270: c3dd 64bc f6f6 83be ef89 463d 158a 4f3e
00000280: 6add 343d 8f37 213d 1e9c 6cbe 45e8 70be
00000290: f94f 333e 049f 0dbc c89f e13d a08c da3d
000002a0: 2312 a8be 3811 febc 64a1 383a f2ee c8bc
000002b0: a25c 413e 83b2 213d bec6 14be 0e7f 6c3c
000002c0: aac7 e1bd 2925 02be 12b9 0b3e 22bc 82bd
000002d0: 0b38 3a3d 0cd6 d1bd f4b7 20be 2b6e 80bc
000002e0: 4e09 2d3e 7709 0c3e 38c1 8e3d 6000 2ebe
000002f0: fb2a 96be bf16 263e 96dc 033e e866 953e
00000300: bf0b 463c d3ba 63be 12ce 14be 184c d8bd
00000310: 5476 b7bb 4df8 183e 59e8 83bd 9000 8ebd
00000320: d245 71bc 962c 323d 764d cabd 35df 43bc
00000330: c917 7bbd 0c16 023e b3f2 9bbd c59f adbd
00000340: ae66 173c 5100 9a3d 5156 c63d 0e7b ca3d
00000350: 57a5 b4bd 100a 3ebe d673 973d 330d 1c3d
00000360: 216c 033e 99e8 a43d 6110 8bbd f882 10be
00000370: cf5d a0bd 0ec4 323e 702f 453e 397a 813d
00000380: 57a4 0dbe 4a17 be3d 6df4 f4bc 5716 363d
00000390: 377f 4d3d 1922 443d 56d2 3dbc a2a5 2d3e
000003a0: a52b 103e 18c3 753e 430b 4d3e 7644 08be
000003b0: c711 903d bce7 063c c445 8b3d 44e2 103e
000003c0: ca1a 8c3b 03a0 8a3d 5570 3e3c b8da cc3d
000003d0: 0cac 1d3e e532 18be 71d6 d43c 6749 cbbd
000003e0: 0b46 ad3c dc1f 483c 9b3c 32be d38b b3bd
000003f0: 63b7 f43c f16d 87bd 3384 d2bd 5744 63be
0.07419263 0.0832436 -0.06297048 -0.112261795 -0.103679664 0.086343266 -0.08246364 -0.04735574
-0.15088932 -0.059214056 -0.053841874 -0.16096364 -0.29017547 -0.2038456 -0.07448411 -0.001008124
-0.009995888 0.017513439 -0.043817583 0.035702106 0.17328103 0.16999483 0.060524274 0.19470017
0.10244541 0.060524948 0.1176065 -0.059782308 -0.08353406 -0.1020282 -0.005228305 0.03389066
-0.16505346 -0.14162599 -0.1655046 -0.14413634 -0.19249918 -0.039458912 -0.042639323 0.019714851
-0.052620232 -0.14161845 -0.045210388 -0.10389188 -0.059423253 -0.031715497 0.065066874 0.07241958
-0.03917879 0.0058974023 0.07118521 0.13028176 0.13988762 0.066899486 0.048035815 -0.027226452
0.010976172 -0.087951414 -0.07500014 -0.06869467 0.056938563 0.0024195886 -0.10199478 0.040514216
0.11003111 -0.029711012 -0.0076035974 0.04602741 0.15400897 0.19718614 -0.064860635 -0.03109224
0.080190375 0.13719597 0.12144774 0.15593861 0.17132744 -0.058740877 -0.10809942 -0.020826591
0.050244465 -0.081926376 -0.28015134 -0.13156377 0.26886284 -0.11258053 -0.34382412 -0.04129068
0.44950396 0.07391749 -0.0537837 0.07478259 0.34943998 0.103469096 -0.35351497 -0.017154025
0.14437136 0.032357432 -0.22853473 0.0049161916 0.22111203 0.26393336 -0.01594628 -0.19841933
-0.11356194 0.19989501 -0.22454554 -0.4449799 -0.07122336 0.20584625 -0.106034115 -0.21059166
-0.051659085 0.45337576 0.15481904 -0.15873113 0.02086341 0.26385817 0.025651788 -0.25383523
0.085751355 0.065345146 -0.08398124 -0.13935705 -0.09517432 -0.018015629 0.13674279 -0.012226146
-0.19265547 -0.10134643 0.13887213 -0.113606155 -0.40907556 -0.08292258 0.22553387 -0.122609615
-0.3004934 0.0125088785 0.370254 0.15746538 0.0008823872 0.10177726 0.38847455 0.07558191
-0.2887647 -0.043444633 0.1341801 0.005283953 -0.15536983 0.036698036 -0.13496192 -0.12865293
0.041645 0.27103335 0.23306102 -0.0933199 -0.013968888 -0.25774354 0.048471387 0.20267518
0.04415647 0.039359625 -0.23106429 -0.23526104 0.17510976 -0.008643869 0.11016804 0.10671353
-0.32826337 -0.03101407 0.0007043092 -0.024528 0.18882993 0.039476883 -0.14528939 0.014434589
-0.11024411 -0.12709488 0.13644817 -0.0638354 0.045463603 -0.10245904 -0.15695173 -0.015677532
0.1689808 0.13675486 0.06970447 -0.1699233 -0.29329666 0.16219614 0.12877116 0.29180074
0.012087761 -0.22239237 -0.14531735 -0.10561389 -0.0055988226 0.14938469 -0.06440801 -0.06933701
-0.014726119 0.04349955 -0.09878056 -0.011955072 -0.06130198 0.12703723 -0.076146506 -0.08477739
0.009240789 0.075195916 0.09684432 0.09886752 -0.088205986 -0.18558526 0.07395141 0.038098525
0.12834217 0.08052177 -0.067902334 -0.1411246 -0.078303926 0.17457601 0.19256377 0.0632214
-0.13832222 0.09281786 -0.029901708 0.0444549 0.05017015 0.04788408 -0.0115857925 0.16957715
0.14079149 0.24000204 0.20023827 -0.13307366 0.07034641 0.008233961 0.06800416 0.14148813
0.0042756544 0.06768801 0.011623462 0.10002655 0.15397662 -0.14863165 0.02598116 -0.0992611
0.021151563 0.012214627 -0.17405932 -0.08766904 0.029872602 -0.066127665 -0.10279121 -0.22194038

feature_extractor.0.bias f4 [32]
00000000: e61c 5fbc fca6 35be a11f 7cbe d43f 683c
00000010: 6be2 8dbd bd5f 0bbd ea26 55be ddb9 23be
00000020: 0df9 03be 2dac b7bd 6f38 33be bdf4 493d
00000030: 6396 cebd ecd4 1abe 97da 1f3c b8e6 1fbd
00000040: 90d4 9bbd 9725 c5bd 52a2 1dbe a973 223e
00000050: d8be 793c d15a 8fbe b2d6 19be 590e 65bd
00000060: d638 18bd c961 c6bd a9f5 9abe 8bfc ee3d
00000070: e4ca 94bd 74f8 fcbc a124 0e3d dd1b 8d3c
-0.01361773 -0.1773948 -0.2462144 0.014175374 -0.069279514 -0.03402685 -0.20815626 -0.1598887
-0.12887974 -0.08968387 -0.17501996 0.049305666 -0.10087278 -0.15120286 0.009756706 -0.03903839
-0.076089025 -0.0962631 -0.15393952 0.15864433 0.015243255 -0.27998975 -0.15023306 -0.055921886
-0.037163578 -0.0968662 -0.3026555 0.116692625 -0.07265261 -0.03088019 0.0347029 0.0172252

feature_extractor.2.weight f4 [32]
00000000: e8cf 6d3f 2f5a 903f 4a59 813f c0e1 813f
00000010: 83b7 7d3f 4fdc 673f 6b1c 5d3f fa17 843f
00000020: 151b 853f 7481 7e3f f039 643f 14c9 7b3f
00000030: d9d0 a33f cd18 9b3f 41f4 4c3f beb1 853f
00000040: 6b51 8b3f 83c4 823f 70e7 853f aafc 553f
00000050: ab4e 593f 3f6e 833f 7d96 893f 3541 5d3f
00000060: aa72 643f ae28 833f bab1 6b3f c392 6b3f
00000070: 946b 7a3f 256e 8c3f 15ee 803f b011 803f
0.92895365 1.1277522 1.0105374 1.0147018 0.9910814 0.9057054 0.8637149 1.0319817
1.039889 0.9941628 0.89150906 0.98353696 1.279811 1.2116944 0.800602 1.0444868
1.0884222 1.0216221 1.0461254 0.8358866 0.8488566 1.026802 1.074905 0.86427623
0.89237463 1.024679 0.92068064 0.92020816 0.978204 1.0971113 1.0072657 1.0005398

feature_extractor.2.bias f4 [32]
00000000: 0270 14be 503e febd 8964 b3bd 9f35 1fbc
00000010: 2cc6 f63b 7c1c e63d 1345 113e 4263 903a
00000020: a386 f4bc e647 29bb c298 953d 19da 3d3d
00000030: 418b a33d 78bf 993d b4c8 d4bc 3552 4fbc
00000040: 509a ac3d e12d e4bc 3d40 983d 90fa d83d
00000050: 5b9a ba3d 157b 973c 1cc0 c7bc 04ea bf3d
00000060: 3788 223e 8eec 8dbd ed1c 1abd e4bc 9a3d
00000070: 29b4 013d 77a6 df3b 1931 303d 8229 463c
-0.14495853 -0.12414229 -0.0875941 -0.009717374 0.007530948 0.11235902 0.14186506 0.0011015909
-0.029849356 -0.0025830208 0.07304527 0.046350572 0.07985545 0.07507223 -0.025974609 -0.012653877
0.0842787 -0.027853908 0.074341275 0.10594666 0.09111472 0.018491307 -0.024383597 0.09370807
0.15872274 -0.06929885 -0.037625242 0.07555559 0.031665955 0.006825264 0.043015573 0.012094857

feature_extractor.2.running_mean f4 [32]
00000000: 00f6 d43e 4f4f 6b3e 07c2 4e3e 6f93 c63e
00000010: a050 643e b04b e23e 074e 983e e306 173e
00000020: ad44 5c3e 84f9 943e 61ac 333e 1242 703e
00000030: f784 983e 11f3 513e ed64 2e3f 0a0d a63e
00000040: 8684 983e 0581 563e b24e a83e 17d6 d23e
00000050: b250 c03e 566f 183e 0d10 dd3e c311 ad3e
00000060: 6a65 a83e ad74 763e 7f34 cf3e 2450 bf3e
00000070: 6cb8 f33e 1ec0 fc3e 48c0 893e 6cc2 603e
0.41593933 0.22979473 0.20191203 0.38784358 0.22296381 0.4419837 0.2974703 0.14748721
0.21510573 0.29096615 0.17546226 0.23462704 0.29788944 0.20502879 0.6812275 0.32431823
0.29788607 0.20947655 0.3287254 0.41178963 0.37561566 0.14886221 0.43176308 0.33802614
0.32889873 0.24067946 0.4046974 0.3736583 0.4760164 0.49365324 0.2690451 0.21949166

feature_extractor.2.running_var f4 [32]
00000000: dfd7 e43e 343d 8f3e 1035 5e3e 3965 f93e
00000010: c5d1 373e e9ab bb3e ad05 a03e e504 f23d
00000020: d81b 523e 23bc 9d3e af77 173e 8c98 2b3e
00000030: 53fb eb3e 7c3c 903e 881c 133f ba31 db3e
00000040: ddaf b93e 1c5a 2c3e a85f f33e 6632 083f
00000050: 674a 8c3e 859b 093e 2d8d 463f 637b b73e
00000060: 194b c83e a64f 723e baf1 c03e 6465 8c3e
00000070: bafe 2c3f 77c0 633f 59b2 7b3e ca48 1e3e
0.44695947 0.27976382 0.21699929 0.4871004 0.17951114 0.36654595 0.3125433 0.1181734
0.20518434 0.308076 0.1479175 0.16757411 0.46090183 0.28171146 0.5746541 0.42811376
0.36266986 0.16831249 0.47533917 0.532019 0.27400514 0.13438232 0.7755917 0.35836324
0.39119795 0.23663196 0.37684423 0.27421105 0.6757618 0.88965553 0.24579753 0.15457454

feature_extractor.5.weight f4 [64, 32, 3, 3]
00000000: 09eb 1ab8 002e 013c 02a7 3d3b 679f ba3d
00000010: 3463 dd3d edfa ad3c 2478 0cbc bc40 a93c
00000020: 3b9d 8d3c c1bf 34bd bd2d 1dbd 956e 56bd
00000030: d27d 75bd 537c 9f3c c05d f73b 3ab0 6a3d
00000040: e342 b73c 2022 a13c b620 9bbc 6a43 983d
00000050: a213 8a3c 1fb6 5bbc d716 933d 1888 e03d
00000060: 76c2 26bd 9eac 3ebd 3564 223e dfaa 1abc
00000070: 5095 323d 6d65 713d bb99 7b3b 8539 69bd
00000080: c629 223d a32a 9bbb b6f8 9f3c fd7e 97ba
00000090: c192 9fbd a574 a83a 8ac7 cc3d b854 b2bd
000000a0: f3fe e2bd cbb5 58ba 68db 033c e9ac 06bd
000000b0: e3b4 473d 81d5 bcbd 6c62 cfbd 254e a83b
000000c0: 0ef1 93bd bc22 9bbd bf55 93bc 80c6 cf3b
000000d0: 2ec9 acbd 331a b4bd d999 e53b 4731 0bbd
000000e0: a844 56bd 1423 87bb 39bb fbbc 68ce c93a
000000f0: feb9 423d 545d af3d 2ade 52bd 352f 38bd
00000100: 66d4 2b3b 5cf9 ab3c 3d29 60bd 23b5 693b
00000110: 3e56 b9bc d997 ae3c 3eaa 88bc 42c5 e63b
00000120: e705 00be 760c 0fbe a0c0 a4bd d0fb 243d
00000130: 92d0 9ebc e0d4 583d 0eda cabc 3eaf b03d
00000140: 7a49 913d 6cc1 ffbc 9c9e 9cbd 75c1 f73a
00000150: 38ad 6dbd 2978 b5bd 2cc6 10bb 3fad 3bbd
00000160: 09b8 b3bc 4445 153d f929 a0bd 13da 47bd
00000170: 0055 c13d e4b3 95bd 569c 3b3b 5250 c6bc
00000180: 0dd4 52bc 98d0 713c b4c9 9d3b e415 f2bd
00000190: 6c26 4dbd 1eca 8bbd f12e ba3c d7d4 8dbd
000001a0: 647e 94bd 589d 0c3d a3ec 4c3d 1453 a93c
000001b0: 69a9 abbd 3473 bbbd 9511 1dbc 8166 57bd
000001c0: 9315 febd daa1 08bd 85b9 013d 2ca8 6bbc
000001d0: a2ff a1bc 2a81 6ebd 2992 50bd 73df 033d
000001e0: 6603 d7bd b715 91bc 1267 91bc 338c 2cbd
000001f0: 3b5c 2dbd 2bbb fabc 6028 0bbd 048f 6ebd
00000200: 5143 60bd 861c 8cbd f673 a7bc 1312 25bd
00000210: ee39 8cbb 516b 8abb 3e8c 1abd 7b0b 49bd
00000220: bdda 383d 5d74 933c d6ed 04bd 9a93 19bc
00000230: 443c 493d d45c 343d 29a4 0d3d 4b68 193d
00000240: 6d72 acbd cae5 47bd a803 2e3c 0cf2 67bd
00000250: bf4d 88bd bd2e f9bc 1487 a1bc 73d2 e53c
00000260: b269 9dbc 4b76 bf3c ef47 ff3c 880f f13b
00000270: f808 a8bd a64e 613c d816 413d d602 49bb
00000280: 1abd 40bc 8202 2dbb 928a 15be 6561 b7bc
00000290: ca5f e13c e203 163d cc44 233c c19d 013c
000002a0: 9b41 a03d d59c 443c 745d 12bd ac0a 69bd
000002b0: 2e85 ef3b 68b0 85bb 9985 97bc d8cd b3bc
000002c0: 8c55 dc3c 5e0c 9ebd 71f3 19bd c99b d53b
000002d0: da6c 50bd de36 c9bb b64d 99bd c835 22bd
000002e0: cc96 2dbc 7156 89bd 17cb de3c 6f36 283d
000002f0: 21a6 8dbd 6eec 47bd 3483 bbbb 43f1 03bb
00000300: 5950 84bc d327 33bd b1bb 8a3d 453e 1fbd
00000310: b902 533d 10ab 3c3d ea42 703c cda4 abbc
00000320: 8ddc 6bbd fc62 453d 8d27 743d 9621 d43d
00000330: 9842 333d 4c04 123e 321b 823d 5c73 32bd
00000340: 7957 00bc bc43 9e3b 0d18 2abd 18ea e3bc
00000350: 1816 873b 10df d63c 862b baba 6f47 c53a
00000360: 3a8c e1bc 1151 80bc 43ad 133c b631 59bc
00000370: 7518 153d 76fb 75bd 3306 103b e9c8 ac3c
00000380: 7e43 b3bc 9cf7 a7bd d02f 8dbb 56c8 95bc
00000390: 3d36 8e3c 36e4 933d 5361 db3d e627 62ba
000003a0: efcb 2c3d 098c 293e 0087 a43c 11ad 123d
000003b0: 0bd7 3e3d 2d18 56ba c722 a43c 9ede 11bc
000003c0: 9940 2a3c 4cc0 343c a835 6ebd 9630 49bc
000003d0: c3ed 6e3c 0fae 8d3c 0a72 57bd c7ff e93b
000003e0: 8554 b8bd 26c9 70bb 27af 983b 6a9c d53c
000003f0: 97c4 81bd 14d8 1e3c fe49 1abd 375a 96bc
-3.6935355e-05 0.007884502 0.0028938656 0.09112435 0.10809937 0.021237815 -0.008573566 0.02066075
0.017286887 -0.044128183 -0.038373698 -0.052351553 -0.059934445 0.019468462 0.0075490177 0.05729697
0.022370761 0.019669592 -0.018936496 0.07434733 0.016855065 -0.01341012 0.07182091 0.10963458
-0.040712796 -0.04655134 0.15858538 -0.009440153 0.043599427 0.058934618 0.003839119 -0.05693962
0.03959062 -0.0047353073 0.019527774 -0.0011558231 -0.07791663 0.0012852146 0.099989966 -0.08707565
-0.11083784 -0.00082668354 0.008047916 -0.032879744 0.04875649 -0.0922041 -0.10126194 0.0051362687
-0.07223712 -0.075749844 -0.017985223 0.0063408017 -0.084368095 -0.087940596 0.0070068655 -0.03398254
-0.05231157 -0.0041240547 -0.030728923 0.0015396597 0.047540657 0.08562723 -0.051481403 -0.044966895
0.0026219129 0.020992927 -0.054726828 0.0035660944 -0.022624131 0.021312641 -0.01668274 0.007042558
-0.12502252 -0.13969597 -0.08044553 0.04027921 -0.019386563 0.05293739 -0.02476218 0.08627175
0.07094093 -0.03122016 -0.0764744 0.0018902259 -0.058026522 -0.08860809 -0.0022090776 -0.045819517
-0.02193834 0.03644301 -0.07820506 -0.048791956 0.094400406 -0.07309702 0.002862712 -0.024208222
-0.01286794 0.014759205 0.0048153047 -0.118205816 -0.05008547 -0.0682566 0.022727462 -0.069253616
-0.072506696 0.034329742 0.05003036 0.020669498 -0.08381922 -0.091528326 -0.009586711 -0.05258799
-0.12406459 -0.03335748 0.031671066 -0.014383357 -0.019775216 -0.05822865 -0.05092064 0.03219552
-0.10498695 -0.01771055 -0.017749343 -0.042125892 -0.042324286 -0.030606827 -0.03397405 -0.05824186
-0.054751698 -0.06841378 -0.020441037 -0.04030044 -0.0042793667 -0.004224219 -0.0377314 -0.049083214
0.04513048 0.017999822 -0.03245338 -0.00937357 0.04912974 0.04403384 0.034580383 0.037452977
-0.084202625 -0.04880313 0.010620989 -0.05662732 -0.06655454 -0.030417794 -0.01971773 0.028054452
-0.019215439 0.023371836 0.03116223 0.007356588 -0.08204836 0.013751661 0.047140926 -0.0030671856
-0.011763835 -0.00263992 -0.14603642 -0.022385309 0.027511496 0.036624797 0.009965133 0.007911147
0.07825013 0.012000282 -0.035733655 -0.056894943 0.0073095774 -0.004079867 -0.018496322 -0.02194874
0.02689626 -0.077172026 -0.03758568 0.006518815 -0.05088506 -0.006140574 -0.07485525 -0.03960207
-0.010595035 -0.067059405 0.02719645 0.041067537 -0.06916452 -0.04880946 -0.0057224277 -0.0020132817
-0.016151594 -0.04373915 0.067740805 -0.038877744 0.05151627 0.046061575 0.014664391 -0.020952607
-0.05758338 0.048190102 0.05960803 0.103579685 0.04376468 0.14259452 0.06352843 -0.043567047
-0.007833355 0.004829852 -0.041526843 -0.027821586 0.004122507 0.026229411 -0.0014203645 0.0015051196
-0.027532686 -0.015663655 0.009013477 -0.013256481 0.036400277 -0.060054265 0.0021976351 0.021091895
-0.021882769 -0.082015246 -0.004308678 -0.018284004 0.017359847 0.07221262 0.107119225 -0.0008627161
0.042186674 0.16557325 0.020083904 0.03580958 0.0465918 -0.00081670546 0.020036114 -0.008903174
0.010391378 0.011032175 -0.05815664 -0.01227965 0.014583054 0.017294912 -0.05259899 0.0071410867
-0.09000496 -0.0036740988 0.0046595517 0.02607556 -0.06336325 0.009695072 -0.03766822 -0.018353565

feature_extractor.5.bias f4 [64]
00000000: f04b c6bc a001 50bd e4f8 57bd c895 a5bd
00000010: 86fa eebc d8c9 13be 34fc 2fbd db4d 833d
00000020: 38c3 f4bc 2022 1cbd 02b1 6c3c cbeb af3c
00000030: 23d1 9fbc 5e5e f13c 0be0 7fbd be79 bb3c
00000040: b546 bebd 538f 9abc d077 d43c 254b 5abd
00000050: 1c71 d63c 7d56 103d 07e3 99bc 8a07 043d
00000060: 3afc 96bd cce4 68bc b68d 52bd 5c50 cdbc
00000070: be47 5a3d 2d6c 623d 4121 98bd 99bd dbbd
00000080: b11e 1cbd a0ce 403d e617 3abc b9c3 a73c
00000090: 81c0 75bc c942 94bd 2192 2d3d 506b 88bd
000000a0: f80f 75bd d72a 1abc c6b9 82bc 43f7 a1bb
000000b0: ad16 03bd cb3d 6abd 9a6c 693d 8212 8c3d
000000c0: 0302 15be e7fe 77bc 6dce 99bd 5972 c3bc
000000d0: 96d6 5dbd d42a b1bd 2791 80bd 319a 1d3d
000000e0: cbd7 8dbd 9000 1a3d 18b5 8a3a 111e d4bc
000000f0: f24d 66bd 64da 7fbd a10c 36bd 1c95 efbc
-0.024206132 -0.0507828 -0.052727595 -0.08085209 -0.029172193 -0.14432466 -0.04296513 0.06411334
-0.029878244 -0.03811848 0.014446499 0.02147474 -0.019508904 0.029463943 -0.062469523 0.0228852
-0.0929083 -0.01886717 0.025936037 -0.05329432 0.026176982 0.03523873 -0.018785013 0.032233752
-0.07372327 -0.014214706 -0.051404677 -0.025062732 0.053291075 0.055278946 -0.07428218 -0.10729522
-0.038115207 0.047072053 -0.011358237 0.02047907 -0.01499951 -0.07239301 0.042375688 -0.06661093
-0.059829682 -0.009409628 -0.015957724 -0.004942806 -0.032004047 -0.057187837 0.056988336 0.068394676
-0.14551549 -0.015136457 -0.07510076 -0.023858236 -0.054159723 -0.08650747 -0.062776856 0.038477127
-0.06925925 0.037598193 0.0010582535 -0.025893243 -0.05622668 -0.062464133 -0.044445638 -0.029245906

feature_extractor.7.weight f4 [64]
00000000: e535 813f ce12 763f 7940 843f 8ab7 793f
00000010: 19b5 703f 55c9 843f e483 893f 1daa 7a3f
00000020: fe0f 7f3f 7d51 8a3f 94a3 793f 75c8 703f
00000030: 72e3 713f c9b5 743f 5f9b 783f 7d39 793f
00000040: 45f9 843f 3c03 773f 9d10 843f 087c 823f
00000050: 17af 813f 6c46 733f 3c9f 763f d323 873f
00000060: 5981 813f 0334 6d3f 09ec 6f3f 9170 7e3f
00000070: 2c24 833f 4666 763f 1261 813f f570 813f
00000080: eb2e 7a3f 5f12 7b3f 66c8 793f 0faa 733f
00000090: e15b 823f 8d02 813f 5197 7d3f ae85 7e3f
000000a0: 648d 823f 328b 863f 1123 703f 2e59 7f3f
000000b0: 3f8e 803f 2017 7b3f 19db 6f3f 4756 833f
000000c0: 493c 763f 3a9e 863f d5c6 873f fa29 7e3f
000000d0: 6d25 7d3f db61 783f b938 803f c9e6 813f
000000e0: c475 7d3f 92db 7b3f 4e6a 833f e685 973f
000000f0: 96f4 863f 5417 813f eefd 7f3f 2abd 833f
1.0094572 0.96122444 1.0332175 0.97545683 0.94026333 1.0373942 1.0743375 0.9791582
0.9963378 1.0806118 0.97515225 0.94055873 0.9448768 0.9558988 0.9711208 0.97353345
1.0388571 0.9648931 1.031757 1.0194101 1.0131558 0.9502933 0.9633672 1.0557808
1.0117599 0.9265749 0.93719536 0.9939051 1.0245414 0.96249807 1.0107749 1.0112597
0.9772784 0.9807491 0.9757141 0.95181364 1.0184289 1.0078903 0.99059016 0.9942273
1.0199399 1.0511229 0.9380351 0.9974545 1.004341 0.9808216 0.9369369 1.0260705
0.9618574 1.0517037 1.0607554 0.992828 0.9888523 0.97024316 1.001731 1.0148555
0.9900782 0.9838191 1.0266817 1.1837738 1.0543392 1.0085244 0.9999684 1.0292103

feature_extractor.7.bias f4 [64]
00000000: 5264 39bc 7c8a 8ebc 4a5c 093d 411d c7bc
00000010: 3042 67bd 46b8 1abd 73b8 4a3d 6f44 f63b
00000020: dc5a 233d 1cea 0a3d a271 a5bc 0d3d d93b
00000030: 9af7 aa3d 9c27 673d 1da1 9bba c74a 96bb
00000040: 84d0 1abd c986 693d a41c 803c 549a 54bc
00000050: d905 aebc 6d7d b4bc 0404 553c be5e 7dbd
00000060: cfb7 ad3b 5753 05bc de72 183d 541d ffbc
00000070: d8b4 8f3d 0f7b b63c fb6d debc e36b 1cbd
00000080: 2ae0 9dbc 4527 e63c 8dca 16bd 5bd8 403d
00000090: 23a5 943c 55cb 8d3c fa9e 8abc c18d 443d
000000a0: 95cf 68bd 7c9c 563c d0dd 0cbb 325c 74bb
000000b0: f819 af3b 00a6 4a3c a585 d53a 30fd cd3d
000000c0: 4202 20bd 288e a2bb 1a0c 86bd 7ab6 db3c
000000d0: 886a 213d 1d85 b3bb 4155 3abd cecd 5e3c
000000e0: a4ca 1abd 2cb3 183d 4cff 8cbb f540 cb3c
000000f0: ba01 293d 2267 82bc 147d 11bd 7da5 523d
-0.011315422 -0.017400019 0.03353528 -0.024305942 -0.056459606 -0.037773393 0.04949231 0.007515482
0.039881572 0.03391467 -0.020195786 0.0066295923 0.083480075 0.05643426 -0.0011873577 -0.004586551
-0.037796512 0.057013307 0.015638657 -0.012976248 -0.021243023 -0.022032464 0.013001446 -0.06185793
0.0053014527 -0.008137546 0.03721892 -0.031141914 0.07016915 0.022275476 -0.027152052 -0.038188826
-0.019271929 0.028094897 -0.03681426 0.047081333 0.01814515 0.01730887 -0.016921509 0.04798675
-0.05683859 0.013098832 -0.0021494515 -0.0037286398 0.005343672 0.012368679 0.001629044 0.10058057
-0.039064653 -0.004960794 -0.06545277 0.02682041 0.039408237 -0.005478515 -0.04549146 0.013598872
-0.03779091 0.037280247 -0.0043028947 0.024811247 0.041261412 -0.015918318 -0.035519674 0.051427353

feature_extractor.7.running_mean f4 [64]
00000000: 803e aa3e 7a8a ca3e 6fa5 ea3e 88e5 063f
00000010: c3a9 2b3f 1320 8d3e 0c1f aa3e 1117 093f
00000020: e0fb 8e3e 1a6f df3e 2cb5 9d3e e2fc ed3e
00000030: 538e 313f 5430 073f 8b74 dc3e b6b2 703f
00000040: 1b92 993e 6308 153f 88e3 d03e e6c0 ce3e
00000050: bd07 f33e ef1f d33f fc48 2e3f 5b99 e93e
00000060: 68e4 c53e 773a 253f 4c0c e13e 2d50 ed3e
00000070: 084d 103f 1536 0f3f acda ab3e eace b83e
00000080: 1b19 023f 5ed4 3a3f e1a6 1d3f bfcf 9c3e
00000090: cb03 e73e 5d75 1d3f 99e3 3b3f 11a5 ff3e
000000a0: 829d c93e 0980 113f a83a 243f b741 e03e
000000b0: aee6 fc3e 3d9f d33e 20ef 223f 100c 2e3f
000000c0: f608 953e 559c 0d3f b6b7 983e ef28 e03e
000000d0: 0f1d 1d3f bcb9 103f 82d1 b63e 0808 de3e
000000e0: a51a 513f ad3a f53e d703 043f db73 d13e
000000f0: 5045 fc3e 7b66 783e 6035 b23e 7ef4 da3e
0.3325081 0.39558774 0.4582934 0.52693987 0.6705591 0.27563533 0.33226812 0.5355082
0.2792654 0.4363945 0.30802286 0.46481997 0.69357795 0.5280812 0.43057665 0.9402269
0.29994282 0.5821592 0.40798593 0.40381545 0.4746684 1.649412 0.68080115 0.45624813
0.38650823 0.64542335 0.43954694 0.46350232 0.5636754 0.559419 0.3356527 0.36095363
0.5081956 0.72980297 0.6158276 0.30627248 0.4512008 0.6150721 0.7339416 0.49930623
0.3937798 0.5683599 0.64152 0.43800136 0.49394745 0.41332427 0.63646126 0.67987156
0.291084 0.5531667 0.2982766 0.4378123 0.61372465 0.5653341 0.35706717 0.43365502
0.8168128 0.4789633 0.5156836 0.40908703 0.4927163 0.24257843 0.34806347 0.42764658

feature_extractor.7.running_var f4 [64]
00000000: e47a 3e3f 0204 133f b751 363f 6e3b 7c3f
00000010: ba21 943f aad7 0b3f 4bd9 153f e5b8 623f
00000020: 3280 d83e cf43 813f c475 103f b313 3b3f
00000030: 81b0 a33f a0a7 4c3f 70f5 243f c6ed cb3f
00000040: 69f3 1f3f 030e a03f 201c 3c3f 2f6b 7c3f
00000050: 7135 503f e29f 2640 df40 8a3f a93b 533f
00000060: 6109 443f cc26 943f dd5a 593f 27c0 283f
00000070: 338e 9c3f 1b6d 943f 52b1 233f 22ba 313f
00000080: 7592 933f 990e b23f ddd4 9f3f 108a ef3e
00000090: b867 333f cb64 813f 876b d33f fa0e 543f
000000a0: 8730 2c3f 9fc9 6c3f c2a8 833f c70e 493f
000000b0: 8752 403f 3b5c 263f 106f 6a3f a58f 9f3f
000000c0: fbcf 0d3f ccf1 a33f 6455 0b3f 370b 293f
000000d0: 154d a63f 8e20 603f c456 323f ecc9 4c3f
000000e0: 1561 af3f 496f 473f 6a9f 403f 3d43 3d3f
000000f0: 5fe5 a13f 5c3c e33e 4b3e 233f 2566 363f
0.74406266 0.5742799 0.71218437 0.9852818 1.1572793 0.5462595 0.5853469 0.88563377
0.42285305 1.0098819 0.56429696 0.73076934 1.278824 0.79943275 0.6443701 1.5931938
0.6248079 1.2504276 0.73480415 0.9860105 0.81331545 2.6035085 1.0801047 0.8251291
0.7657681 1.157434 0.8490427 0.659182 1.2230896 1.1595796 0.63942444 0.6942464
1.152907 1.3910705 1.2486836 0.4678502 0.7008014 1.0108885 1.651719 0.8283535
0.67261547 0.9249515 1.0285876 0.78538173 0.75125927 0.6498448 0.9157572 1.2465712
0.5539548 1.2808166 0.5442717 0.6603274 1.2992274 0.87549675 0.69663644 0.7999561
1.3701502 0.7790418 0.75243247 0.7393072 1.2648124 0.44381988 0.63766927 0.7124961

feature_extractor.10.weight f4 [128, 64, 3, 3]
00000000: e47d 09bb 797d 5b3d 966a 2f3d e7ec 3cbc
00000010: 33e5 5d3c 0f26 573d 72cd 89bc bad8 023d
00000020: 7d0c c23d a7f6 f4bb a05f 9e3c d562 8a39
00000030: ad39 dabb d4d3 823c ff69 173d 9eed 77bc
00000040: dd77 41bd 43f9 1e3d 71d9 443c 5d64 8fbc
00000050: 2e36 babc 6e9a 8bbb f51a 15bd dab8 32bc
00000060: 6b8e 53bd 7b31 53bd d366 5bbd ac8b 263c
00000070: 49ae 9f3c f352 e1bc 7d84 f33c 7c14 893c
00000080: 31c1 a4bd 96d6 1a3d 2a74 1c3c ca9b a0bc
00000090: efae e53c ee45 91bc 6955 1fbd 8f88 0d3d
000000a0: b546 bf3c ae87 7bbd 825a 7f3d 6bf3 89bb
000000b0: 2f7c 67bd 5e9e 1a3d a0b3 643c 04d4 4ebc
000000c0: 2e83 24bd 3898 00bc 8cda 97bd c07c 89bd
000000d0: 95ff 36bd f319 a8bc b8f7 8bbc 6e4d 763b
000000e0: 2e8d 98bd 8753 dc3c f5cc 23bd 6d0e 9ebd
000000f0: 2e56 39bd d9bc 9c3b 5f37 58bb 28fb 803c
00000100: c660 7bbc a343 2e3d 3df5 a3ba 514d 12bd
00000110: 932c 463c 4295 8c3c 7607 583d 948e f3bc
00000120: 689d 82bd c665 a9bb b0b9 09bd dfda 25bd
00000130: 197c d63c 23ba 71bc 1dde 56bd 8871 cdbc
00000140: 4de7 01bd 5ea1 b4b9 3a95 c7bb 413e 96bd
00000150: a8e6 42bd 86aa 4bbd f33e 82bb 60dc f0bc
00000160: 0c99 c1bd 183e 753a 70d8 14bc eed8 52bd
00000170: c266 b83c f28a 0a3d a4dd 503d 94a5 f3bb
00000180: 9418 04bd 632e 4ebc 1bd1 4e3d 7a11 d8bb
00000190: d1c8 6f3d 0789 3a3d 8041 06bd 3bbd 3d3d
000001a0: bc7a 173c 6aca 97bc 6942 34bd d0a7 52bb
000001b0: abb4 633b 7eb7 fa3c a788 673c 7e9d 61bb
000001c0: 6012 f9bc 63ca 92bc bdc8 f9bb 3de2 f8bc
000001d0: ed47 42bb f58c 90bd 5a8c 1fbb c2e9 ad3b
000001e0: d98e efbc d503 7ebc 3212 073d d360 273d
000001f0: 9b29 293c 08f1 9e3d f243 3dbc 0d15 a63c
00000200: 8959 10bd d821 fa3b 7073 8dbd f8e8 45bc
00000210: 1dc0 ad3b d941 123d 7d98 4abd b0c5 413d
00000220: a4e3 1d3c c618 443b ab36 1f3d 52b0 7bbd
00000230: b1c9 84bc 5f8e aa3d ce3d 25bd 72a4 dcbc
00000240: 34f8 34bc 8bcd 68ba fcc3 7cbc 314f 36bd
00000250: 9996 443c c929 c6b9 f76e d23b 93c1 053d
00000260: e07b 6f3c 144d 9b3d 6136 9a3c 1289 dd3b
00000270: d250 15bc 8797 6c3b ec25 d7bc 2686 2cbb
00000280: 9166 0bbd 77fc 2e3c 00ca a23b d9ad 633d
00000290: 95bb 763c 2bfc 32bd 809f ae3c 75f7 a0bc
000002a0: 6137 9fbd df98 f0bb 82c1 a9bc d05e eabc
000002b0: b4af 9b3c 4443 9b3c 9a6c 73bc 7da9 0dbd
000002c0: 4473 4bbd fbda 983d 859d 52bd 6fe0 b8bd
000002d0: da0b 25bd 49df 223b dd22 333c 62bc 4fbd
000002e0: df02 28bc e78e c9bc 092a a4bc c88a dbbc
000002f0: eaaf 0f3c 848b f1bc 2faf 7b3c 91fb 423c
00000300: 0dfd 183d 8186 a63c 89e7 d2bc 9fa6 b4bc
00000310: 6422 afbc d8d8 ecbb ccfd 56bd cb71 abbd
00000320: 500a 2bbc 3c73 f53b 45be 61bc 4309 c63c
00000330: a731 a63c af29 c4bc b459 033d c351 81bb
00000340: d328 aa3b e8ad 9f3c 208d dfbc 9b8f 7b3b
00000350: 3cc6 cc3c 5bd5 b3bc 8802 423c e70c e63d
00000360: e576 153d e995 ac3c ccdf 0f3d c6d9 113d
00000370: 2758 853d 4d15 6a3d c30f 72bc 840b d5bc
00000380: f59a d53c 6abd b1bc 67d8 a6bc 94d0 f93b
00000390: 8bbb 10bd 057b e6bc d6bf 8a3c 0821 0cbd
000003a0: dd79 3ebb 0c57 713d 4758 db3b fa00 5ebc
000003b0: 337b 15bc 5c95 d03c ddcc 093c cbff eabc
000003c0: 64d0 7cbc 003b 0abd 9b1a 99bc 1bef 07bd
000003d0: 10a4 6bbc ef4d 9dbc 808e 55bd 2ac2 46bd
000003e0: e5c7 ad3b 0ab3 38bd adc8 13bd 49bf a43c
000003f0: 95ab 8c3c e127 983b f63e 073b b5dd b4bb
-0.0020979578 0.053586457 0.042826258 -0.011531091 0.013543415 0.05252653 -0.016821597 0.031944968
0.09475038 -0.0074756923 0.019332707 0.00026395047 -0.0066597075 0.015970148 0.03696632 -0.015132336
-0.04723345 0.038811933 0.012014733 -0.017503912 -0.022730913 -0.004260353 -0.03640266 -0.01090833
-0.051649492 -0.05156086 -0.053564858 0.010165136 0.019492285 -0.027505374 0.029726261 0.0167334
-0.08044661 0.0378023 0.00954918 -0.019605536 0.028037516 -0.01773354 -0.038899813 0.03455406
0.023349145 -0.06140869 0.062342174 -0.004209926 -0.056514915 0.037748687 0.013958842 -0.012623791
-0.040164165 -0.007848792 -0.074147314 -0.06713247 -0.044677336 -0.020520186 -0.017085895 0.0037582773
-0.07448803 0.026895298 -0.039990384 -0.07717595 -0.045248203 0.0047832546 -0.0032991988 0.01574476
-0.015342897 0.042544972 -0.0012509 -0.035718266 0.012095588 0.017161015 0.05274149 -0.029731072
-0.06377679 -0.005169603 -0.03362435 -0.040491935 0.026182221 -0.014753851 -0.052457917 -0.02507855
-0.031714726 -0.00034452503 -0.0060907872 -0.07336093 -0.047583252 -0.04972317 -0.0039747893 -0.029401958
-0.094530195 0.0009355261 -0.009084806 -0.05147641 0.022509936 0.033823915 0.050992623 -0.00743551
-0.032250002 -0.012584302 0.050492387 -0.0065938802 0.058541123 0.045540836 -0.03277731 0.046323042
0.009245571 -0.018529136 -0.044008646 -0.003214348 0.0034745138 0.030605074 0.014131702 -0.0034426148
-0.03040427 -0.017918771 -0.007622807 -0.030381316 -0.0029644922 -0.070581354 -0.002434513 0.005307407
-0.02924292 -0.015503843 0.032976337 0.040863823 0.010324861 0.07760817 -0.011551844 0.02027371
-0.035241637 0.007633429 -0.069067836 -0.01207947 0.0053024427 0.03570733 -0.04946183 0.04730767
0.009636793 0.0029921993 0.038870495 -0.06144745 -0.016209455 0.083279364 -0.040342145 -0.026933882
-0.011045504 -0.0008880726 -0.015427586 -0.044509117 0.011998796 -0.00037796635 0.0064219194 0.03265531
0.014616936 0.07583061 0.018824758 0.006760725 -0.009113507 0.003610106 -0.0262632 -0.0026325076
-0.03403336 0.0106803095 0.004967928 0.055585716 0.0150593715 -0.043697517 0.02131629 -0.019649247
-0.077742346 -0.0073424424 -0.020722155 -0.028609663 0.01900468 0.018952973 -0.014857436 -0.034585465
-0.049670473 0.07463642 -0.051419754 -0.09027182 -0.040294506 0.0024852327 0.010933605 -0.050716765
-0.010254591 -0.024604274 -0.020039575 -0.026799574 0.0087699685 -0.029485472 0.015361591 0.011900798
0.037350703 0.020327808 -0.02574517 -0.022052107 -0.021378703 -0.007227998 -0.052488133 -0.08371314
-0.01043947 0.0074905436 -0.013778274 0.024174338 0.020287348 -0.023945658 0.03206797 -0.0039465143
0.005192855 0.019492105 -0.027288973 0.0038385156 0.02499687 -0.021952322 0.011841424 0.1123293
0.03649034 0.021067576 0.03512554 0.035608076 0.06510954 0.05714922 -0.014774266 -0.026006468
0.026074866 -0.021696765 -0.02036686 0.0076237414 -0.035335105 -0.028134832 0.016937178 -0.03421119
-0.0029064335 0.058920905 0.006693873 -0.0135500375 -0.009123611 0.025461845 0.00841066 -0.028686425
-0.015430544 -0.033747673 -0.018689444 -0.033187013 -0.014382377 -0.0192022 -0.05213785 -0.048525013
0.0053033703 -0.04509262 -0.03608005 0.020110743 0.01717166 0.004643426 0.0020636893 -0.0055195936

feature_extractor.10.bias f4 [128]
00000000: bde2 48bd 8f62 02bc af02 3cbd 7d06 09bb
00000010: dfa8 b0bb 573b 31bd a756 143d 0565 bdbd
00000020: 9d78 06bd ede3 5a3c 9786 00bd eb04 f4bc
00000030: 035b 98bc 8626 12bc 500d 58bd 3f10 30bd
00000040: 5db1 eebc b856 3fbd c497 7e3c 1d66 64bd
00000050: 4c77 4abd 2dc5 a3bd eba4 51bd 03d0 f63c
00000060: f24e fcbc 4f14 83bd a7fa 1bbd 01bd 1ebd
00000070: c1df adbc a887 5ebd c302 3cbd 5d9c acbc
00000080: 441d 25bc e276 9ebc d628 29bd 9604 4d3d
00000090: 9afc 3abd cd2b 23bd dd7e a1bc eb4d 0dbd
000000a0: ff16 e43c 4268 b9bc eb95 683c dd57 0bbd
000000b0: 4311 a5bd fe02 fabc 586f 04bd 71af b73c
000000c0: 5a24 edbb f9f2 adbc bb16 07b8 95dc bb3c
000000d0: b0d4 a73c 2258 dd3c 90c6 683c 87dc 7cbd
000000e0: 92ff 8c3a e0cf 62ba 99f0 87bc a1e2 91bb
000000f0: 4b11 3d3c b656 1ebd 856b d7bc 06a3 a6ba
00000100: 21ef cdba d954 15bd b7d8 00bd 84b2 89bd
00000110: 292a 24bd b0b3 21bd 6c1a 48bd 2516 a93b
00000120: 900e 433c 6133 bfbc 3e51 e1bc dba4 d1bc
00000130: 656f 37bd 2ad7 763c 1035 bfbc 727e 07bd
00000140: 0ea9 02bd 3838 abbc a85e 0b3d ebac a2bc
00000150: 4bd0 f63c f8c3 08bd 3064 68bc 1a16 6ebd
00000160: bf2b 89bd 95ea 813c 9ebe 1dbd 18dc b3bc
00000170: 7a4c 29bd 7b60 cabc d535 85bc 370a 34bd
00000180: d1db 50bc 4318 cabc 1c0e c73b 5245 22bb
00000190: 9d3c 56bd 8257 043d 5a3c 2e3a 2718 5cba
000001a0: f718 033d e226 15bd c6f5 8bbd b72e ef3c
000001b0: 4d16 583c b79f 36bd bf0c 073d 9912 383b
000001c0: ef00 6a3b 9aae 273c 9f1a 113c 0a05 1d3b
000001d0: 5af8 0cbd 93c0 5fbd ffe3 e23c f204 5bbd
000001e0: 740a 6fbd f183 9ebd 4fad 07bd 2142 5bbd
000001f0: 7834 19bd 20f9 913b 175a a83c 849b 61bd
-0.04904436 -0.0079580685 -0.045900997 -0.0020908408 -0.0053912248 -0.04326948 0.03621545 -0.092477836
-0.03282987 0.013360006 -0.031378355 -0.029787501 -0.018598085 -0.0089203175 -0.05274707 -0.042984243
-0.029137308 -0.04671356 0.015539113 -0.055761445 -0.049430177 -0.07996593 -0.05118267 0.030128485
-0.030799363 -0.06400358 -0.038080838 -0.038754467 -0.021224858 -0.05432859 -0.04590107 -0.021070654
-0.010077778 -0.019343797 -0.04129871 0.0500532 -0.045651056 -0.039836694 -0.019713813 -0.034498136
0.027842997 -0.022632722 0.0141958995 -0.03401934 -0.08059933 -0.030519005 -0.03233275 0.022422524
-0.0072369995 -0.021234022 -3.2207678e-05 0.02293233 0.02048716 0.027019564 0.014207497 -0.06173375
0.0010757318 -0.00086521916 -0.016594218 -0.004452065 0.0115397675 -0.038656913 -0.026296386 -0.001271338
-0.0015711525 -0.03645787 -0.031456675 -0.06723502 -0.04007927 -0.039478004 -0.048853323 0.0051601105
0.011905327 -0.023339929 -0.02750456 -0.025591305 -0.04478397 0.015065948 -0.023340732 -0.033079572
-0.031899504 -0.02090083 0.034025818 -0.019857844 0.030128619 -0.033390015 -0.014184043 -0.058126546
-0.06697797 0.015858928 -0.038511865 -0.021955535 -0.0413327 -0.024704209 -0.01626102 -0.043955054
-0.012747721 -0.024669772 0.00607468 -0.0024760556 -0.0523039 0.032310016 0.00066465663 -0.0008395933
0.03200623 -0.036414035 -0.06833987 0.02919708 0.013188911 -0.04458591 0.03297114 0.0028087257
0.0035706123 0.010234499 0.008856445 0.0023959302 -0.034416534 -0.054627012 0.027696608 -0.053471513
-0.05835958 -0.077400096 -0.033124264 -0.053529862 -0.037403554 0.004454747 0.02055077 -0.055079952

feature_extractor.12.weight f4 [128]
00000000: 8f02 833f dc96 823f f0b9 833f c85c 7d3f
00000010: aa60 763f 6c71 723f 834f 763f 3155 813f
00000020: b19f 813f 69ce 713f 350d 6d3f 8bc1 823f
00000030: cfeb 773f 2d4f 823f 8486 813f c3de 733f
00000040: ddb9 7a3f 43f6 813f 0910 773f e8d2 833f
00000050: a222 723f 3563 7c3f 17c1 783f 493d 743f
00000060: a0d4 783f 7851 7b3f 88ad 833f d797 713f
00000070: 104f 803f 2e32 813f 95c7 843f 3e98 7e3f
00000080: 57ad 7e3f 2fd1 763f afa7 7b3f e575 843f
00000090: 0ee0 793f 4817 763f 1659 7d3f 6340 6f3f
000000a0: a759 793f 6cc6 803f b368 7d3f f15b 803f
000000b0: a97e 7c3f bc65 7c3f e938 883f 855d 6a3f
000000c0: 9c04 793f 35c6 7f3f 46f4 843f d4cf 6d3f
000000d0: 477b 7a3f 10c0 7c3f 9246 813f e70e 743f
000000e0: 25ae 823f 1127 763f 110e 733f e7d6 713f
000000f0: cbd3 773f 7157 6f3f 5891 763f 0118 833f
00000100: b1f6 863f 916b 7d3f d8ae 7c3f e5dc 843f
00000110: f352 763f 1e6e 813f 7857 803f 5700 803f
00000120: dd4f 7b3f ed7c 823f 0e70 793f b5b6 7c3f
00000130: c608 853f efb7 7b3f 4c34 833f d10f 813f
00000140: 56de 7a3f 5509 7e3f 232d 713f 7a9a 7c3f
00000150: d58f 7e3f c0d5 783f 1552 823f d581 783f
00000160: bf14 803f ae54 743f 1163 823f 4291 713f
00000170: 9e4b 753f 3ac5 813f 3e0c 7c3f 04a7 7b3f
00000180: d8d0 813f 0aab 713f d9be 7e3f 8c84 783f
00000190: 8e96 7e3f 6714 6f3f bfb0 773f bd4f 7c3f
000001a0: cc3c 773f 4c1a 773f f7ea 773f edc8 7b3f
000001b0: bfd0 723f 2471 803f 73b9 823f eb90 7c3f
000001c0: fe30 763f b1ed 7c3f 38d7 803f ae80 833f
000001d0: 1f5b 773f 3a9e 6d3f 41c0 723f bc8b 7d3f
000001e0: 1208 7f3f 013f 803f d786 823f 79ae 743f
000001f0: d6e8 7e3f 4e8f 743f af39 713f 1ff1 803f
1.0235156 1.0202289 1.0291119 0.989697 0.9624125 0.9470432 0.96215075 1.0104123
1.0126859 0.9445558 0.9259828 1.0215315 0.9684419 1.0180413 1.0119176 0.9526178
0.97939855 1.0153278 0.9650884 1.0298738 0.94584095 0.9858888 0.9716963 0.95406014
0.9719944 0.98171186 1.0287333 0.94372314 1.0024128 1.0093439 1.0373408 0.99451053
0.99483246 0.9641294 0.9830274 1.0348479 0.97607505 0.96129274 0.9896406 0.9345762
0.97402424 1.0060554 0.98987883 1.0028058 0.9863077 0.98592734 1.0642368 0.9154895
0.9727266 0.99911815 1.0387046 0.92895246 0.97844356 0.98730564 1.0099661 0.9533524
1.0209395 0.9615336 0.9494334 0.9446854 0.96807545 0.934928 0.96315527 1.02417
1.0544034 0.9899226 0.9870429 1.0379912 0.9622032 1.011173 1.0026693 1.0000104
0.98168737 1.0194374 0.97436607 0.9871629 1.0393302 0.98327535 1.0250335 1.0082952
0.9799551 0.9923299 0.942095 0.9867321 0.9943822 0.97201157 1.01813 0.9707311
1.0006331 0.9544171 1.0186483 0.9436227 0.9581851 1.0138314 0.9845618 0.9830172
1.0141859 0.9440161 0.9950996 0.9707725 0.9944848 0.93390507 0.9675407 0.9855917
0.96577144 0.965245 0.968429 0.98353463 0.9484977 1.0034528 1.0212845 0.9865863
0.96168506 0.9880019 1.006568 1.0273645 0.96623415 0.9281956 0.94824606 0.9904134
0.9962169 1.0019227 1.01974 0.95578724 0.9957403 0.95531166 0.94228643 1.0073584

feature_extractor.12.bias f4 [128]
00000000: bbb0 a9bd 485f a9bd 8394 a6bd 2ff1 8dbd
00000010: 32fc e6bd 620a cbbd 1761 28bd 5d76 f6bd
00000020: 2d31 ccbd f719 debd e9f2 cebd 4bc3 b3bd
00000030: ed94 a7bd 1b50 8cbd b8bb b4bd 74fb b0bd
00000040: 63a0 93bd 429d afbd 356f 9ebd 4167 75bd
00000050: ab30 edbd 126b d8bd d9eb cfbd 705d 56bd
00000060: 7983 b0bd 72d3 58bd 5505 c3bd 0d2b c4bd
00000070: 86b2 b1bd 317b 57bd 9841 bfbd f5f8 c2bd
00000080: 29b5 2fbd 0148 b7bd f7a8 c1bd 6843 19bd
00000090: 8035 95bd c487 c0bd 0941 74bd 528d ddbd
000000a0: 85f3 47bd bb83 4dbd eff8 64bd be45 9dbd
000000b0: dd55 8ebd 7714 77bd d996 73bd 79fe eabd
000000c0: 507e 81bd 8d05 b7bd aea6 acbd dba6 c2bd
000000d0: 4e0b a3bd 2d77 b1bd 79b5 93bd 9894 b9bd
000000e0: 9ae4 9ebd 02a6 a6bd 2262 6abd 811d dbbd
000000f0: 8e9c dfbd 35c9 bebd 936f 5ebd 37f6 63bd
00000100: fc05 c5bd c830 c3bd 44b2 c1bd c22c c8bd
00000110: 9ecf 95bd fa15 d5bd e816 a8bd 345f d1bd
00000120: 71b5 9abd abcf a0bd fd4f 9ebd 7a98 9bbd
00000130: 27a3 aebd e7fb bbbd d0ce bbbd d79b cdbd
00000140: 6b6d babd 9bc5 9bbd 15af d9bd b023 63bd
00000150: 0f2e 40bd 6ec7 90bd 35d7 b4bd 9fc1 d9bd
00000160: 5039 bcbd fafa e2bd f138 9dbd 8342 c3bd
00000170: 0805 f0bd 474d 9bbd 5367 c4bd 30e6 b2bd
00000180: 8e87 9cbd 6edb dabd e4ac acbd 3d41 abbd
00000190: e55a 9cbd 2bf6 d8bd b4de a5bd 7564 a6bd
000001a0: 8137 d2bd d788 acbd 5bfe 93bd a55f 93bd
000001b0: 9579 a5bd d3e5 cdbd 0431 84bd 22c9 cdbd
000001c0: fbc9 d0bd 2a3a 5fbd 4a96 bbbd 08a1 d7bd
000001d0: d1d5 a5bd d314 c3bd efbb d3bd 4441 bdbd
000001e0: 89f0 9ebd 5854 d3bd 669d 38bd 9fc1 babd
000001f0: b0b7 a7bd 7c77 01be 4779 9ebd 8d0d a9bd
-0.08285662 -0.082701266 -0.08133795 -0.06930768 -0.11278571 -0.0991409 -0.041108217 -0.12034295
-0.09970317 -0.10844796 -0.10104925 -0.087774836 -0.08182702 -0.068512164 -0.08824867 -0.08641711
-0.07208326 -0.085749164 -0.07736055 -0.059912924 -0.11581548 -0.10567297 -0.10152406 -0.052335203
-0.086188264 -0.052936025 -0.095225014 -0.09578524 -0.08676629 -0.05260772 -0.09338683 -0.09520141
-0.042897377 -0.089492805 -0.094560556 -0.0374178 -0.07285595 -0.09400895 -0.059632335 -0.1081797
-0.048816223 -0.050174456 -0.055901464 -0.07679318 -0.06949971 -0.06032225 -0.05947003 -0.11474318
-0.0632292 -0.089366056 -0.08430229 -0.095044814 -0.079611406 -0.08665309 -0.072123475 -0.09061545
-0.07758446 -0.08137132 -0.057222493 -0.10698987 -0.10918532 -0.09315721 -0.054305624 -0.05565473
-0.09620282 -0.09530789 -0.094578296 -0.09774162 -0.073149905 -0.10404582 -0.08207494 -0.10223237
-0.075541385 -0.078521095 -0.077301 -0.07597442 -0.085272126 -0.09178906 -0.09170306 -0.1003949
-0.09102901 -0.076060496 -0.10629097 -0.055453956 -0.046918925 -0.07069288 -0.0883011 -0.106326334
-0.09190619 -0.11083026 -0.07676876 -0.095341705 -0.1171971 -0.07583099 -0.0959002 -0.08735311
-0.076430425 -0.10686384 -0.08431414 -0.083620526 -0.07634524 -0.10593828 -0.08099118 -0.081246294
-0.10264493 -0.08424538 -0.07226249 -0.07195977 -0.080798306 -0.10053601 -0.064546615 -0.10048129
-0.10194775 -0.05449883 -0.09159525 -0.10528761 -0.08097423 -0.09525456 -0.1033858 -0.09240964
-0.07760722 -0.10318822 -0.04507198 -0.091189615 -0.081893325 -0.12643236 -0.077379756 -0.08254538

feature_extractor.12.running_mean f4 [128]
00000000: 1cca f43d 6e34 233e d25b db3c 02f3 123e
00000010: 9a58 c33e 51c2 e93d b022 c93d efdb 5d3e
00000020: 2c25 313e 5d7e 433e c2cc 4c3f 9859 cc3d
00000030: ee4f 293e f4fb 923e c34f eb3d 52ed e83c
00000040: f28d 443e d002 023e d2d2 5a3d 16ef f13d
00000050: 4a53 b63e 5ea8 393e f4c4 d33d 76d3 723c
00000060: 9bec 1f3e 98cb 0b3e 31fc 1b3e 80b2 e13e
00000070: 19ce a03d 1cb4 033e 3421 da3d 18e0 c63d
00000080: e3b7 363e e1ec 1d3e 1bf6 f73d 308c c33d
00000090: 4ff4 f83d f466 c83e cf26 4f3e 4c44 953e
000000a0: 5325 d63d 2b14 a53d 8936 be3d fca4 493d
000000b0: 7645 143d 6424 843d 6c65 313e 1507 173e
000000c0: 7617 b93d 0638 9c3d 5422 fd3d ecaa 613f
000000d0: 13c4 143e 7e6f 7e3d ea1a 343e f363 083e
000000e0: c04c 8a3e 492b 2d3e ad0a 713d 8ce6 aa3e
000000f0: 6a6a 8e3e 1032 553e a4e5 b53d c863 213e
00000100: 13d1 a73d 523d 3f3e 2bad 393e a42d 7a3d
00000110: 8e92 873d f38b 973c 1513 013e 9af8 433e
00000120: fb9e 293e bc29 b23d 4542 333e 387a c13d
00000130: a745 b93c 7245 ea3d 3a41 7d3d 882f d13d
00000140: 1498 843d 2697 353d 6e30 883f e8ca a23d
00000150: 4914 d23d dd7d fb3d 3759 b63d 89d5 bb3d
00000160: c683 2f3e b655 503f e943 bc3d 75b3 643e
00000170: b2a7 003f 150e d13d 6db7 4c3e 38e0 853d
00000180: 52d0 273e 67a6 f43d 1744 1e3e edf4 2a3e
00000190: ff38 683e c87b be3f ce29 2b3e 6217 d73d
000001a0: 0067 c13e 93c1 e93e 139a c23d c0b5 363e
000001b0: 462a cd3e 1993 fc3d 9ea8 be3d a216 863e
000001c0: 57c9 3b3e 2971 063d eb32 b83d a4f2 093e
000001d0: 07f9 ad3d 556c 9c3e 6ea5 b43e a940 9c3d
000001e0: 2a16 4a3e 8655 803e 09b9 623d 6ae5 e93e
000001f0: 1498 f53d b44a a43f 613c 8f3e 6a73 263e
0.11952612 0.15937969 0.026777182 0.14350513 0.38153535 0.11414016 0.09821069 0.2166593
0.17299336 0.19091173 0.79999936 0.09978026 0.16534397 0.2870785 0.11489823 0.028433476
0.19194773 0.12696385 0.05342371 0.1181318 0.3561042 0.18130633 0.103403 0.014820924
0.15617602 0.13651884 0.15232922 0.44081497 0.0785181 0.12861675 0.10650864 0.09710711
0.17843585 0.15422393 0.12107488 0.09548223 0.12155973 0.39141047 0.20229648 0.2915367
0.10456338 0.08060487 0.092877455 0.049229607 0.036199056 0.064522535 0.17323846 0.14748795
0.09037678 0.07627873 0.12360063 0.8815143 0.14527921 0.062118046 0.17588392 0.13319378
0.2701168 0.16911043 0.05884807 0.33379018 0.27815562 0.20819879 0.08881691 0.1576072
0.081941746 0.18675736 0.18132465 0.061078683 0.0661975 0.01849935 0.12604935 0.19137803
0.16564552 0.086993665 0.17505749 0.094471395 0.02261622 0.11439027 0.061829783 0.10214144
0.06474319 0.0443336 1.063978 0.079488575 0.10257775 0.12279866 0.08903735 0.09171588
0.17140111 0.81380785 0.0919264 0.22334082 0.5025588 0.10207764 0.19991846 0.06536907
0.16388062 0.11945801 0.15455662 0.16694994 0.22677992 1.4881525 0.16715166 0.10502507
0.37773895 0.45655498 0.095020436 0.1784277 0.40071315 0.12332744 0.09309505 0.26189142
0.18338524 0.03282276 0.08994087 0.13471466 0.08494764 0.305514 0.35282463 0.076295204
0.19735017 0.2506525 0.055352245 0.45682842 0.11991897 1.2835298 0.27975753 0.16254964

feature_extractor.12.running_var f4 [128]
00000000: 17cf b23e ced5 9d3e 651f ed3d f052 8d3e
00000010: 0357 323f 681e 643e 40b2 4a3e 993e ce3e
00000020: 9556 e13e 803d 973e 70ab 8b3f c65b 6d3e
00000030: d4ef 9f3e e6ff 193f 9b11 813e 73ae bc3d
00000040: c2e6 bc3e f5d9 923e 3b3b d73d 6ed0 8a3e
00000050: 8788 0d3f 0ba8 af3e 562c 723e 8c83 a43d
00000060: b08e be3e 6422 ab3e e02d b73e 78bd 483f
00000070: e3df 283e 5e4c 7e3e 46fb 783e b26a 6e3e
00000080: 5dd6 ac3e 511d 7b3e 9fa8 893e 764f 5a3e
00000090: c74a 6c3e cc2b 2a3f 16cc b23e 395e e43e
000000a0: 795c 3c3e 3c30 633e 78c3 493e 6c5f 243e
000000b0: b3e1 113e 8659 253e c470 e13e 4b8a 6a3e
000000c0: 963c 333e a6d3 2b3e 29a5 953e d856 813f
000000d0: b2c9 643e afd9 2b3e 0a09 cf3e 5994 563e
000000e0: d67f 0b3f 3f9c 7a3e 5a0d 0e3e ef58 003f
000000f0: 1d23 ef3e 0eed be3e a727 5a3e 8bea ac3e
00000100: 9c34 583e 0ffc b03e 2ee3 c73e daed 093e
00000110: fb4f 1f3e dc1e b93d 9b5a a43e 9bfa ba3e
00000120: aae6 9c3e 9dc5 773e dec2 a03e 538d 3d3e
00000130: 33fd f13d b536 4c3e ebf3 3e3e 9143 623e
00000140: 42a8 1b3e b48a c73d a7aa aa3f a1de 3f3e
00000150: 88fb 713e dd71 7c3e eb9b 743e cdac 693e
00000160: ad18 b53e 5cf6 a03f 697e 923e ce8c aa3e
00000170: 3e7f 4b3f 21f0 7c3e 6f43 c83e 1506 263e
00000180: d361 ba3e b408 533e 13f4 c43e e031 9b3e
00000190: 402f 053f 8676 df3f 4dac b23e 69c3 6b3e
000001a0: 39e6 283f 2368 503f 5c1e 863e b5aa bd3e
000001b0: f1d7 1b3f fdef 823e 64db 4d3e 4a41 ef3e
000001c0: 07fb 8f3e 3b01 d03d c641 4a3e 6494 9d3e
000001d0: fc08 293e 19cd 0b3f 898b e03e 1d0f 273e
000001e0: a131 c03e 87ce d83e bcf0 313e 797a 583f
000001f0: 8869 893e 6981 c33f 4851 f03e 243f bf3e
0.34923622 0.30827183 0.11578254 0.2760234 0.6966402 0.22277224 0.1979456 0.40282133
0.4401137 0.29539108 1.0911694 0.2317954 0.31237662 0.60156095 0.25208744 0.09212961
0.36894804 0.28681913 0.10509344 0.27112144 0.5528645 0.34307894 0.23649725 0.08032903
0.37218237 0.33424675 0.35777187 0.78414106 0.16491656 0.2483382 0.24314603 0.23282889
0.33757296 0.24522902 0.2688646 0.21319374 0.230754 0.6647308 0.3492133 0.44603136
0.1839465 0.22186369 0.19703472 0.16052026 0.14246254 0.16147432 0.44031346 0.22904317
0.1750358 0.16779956 0.2922757 1.0104628 0.22342566 0.16782258 0.40436584 0.20955028
0.5449194 0.24473666 0.1387228 0.501357 0.46706477 0.37290233 0.21304189 0.33772692
0.21113819 0.34567305 0.39040512 0.1346964 0.15557854 0.09039089 0.32100376 0.36519322
0.30644733 0.24196477 0.31398672 0.18510942 0.11815872 0.19942744 0.18647735 0.22096087
0.15200904 0.097432524 1.3333329 0.1873727 0.23631108 0.2465281 0.23887603 0.22819825
0.3537039 1.2575183 0.28612068 0.3331055 0.7949103 0.24700977 0.39113948 0.16213258
0.3640276 0.20608789 0.38467464 0.3031149 0.5202522 1.7458045 0.3489708 0.23023762
0.6597629 0.814089 0.26195037 0.37044302 0.60876375 0.25573722 0.20103222 0.467295
0.28121206 0.10156485 0.19751653 0.30777276 0.16507334 0.5460983 0.43856457 0.16314359
0.37537864 0.42345068 0.17376989 0.8456188 0.26838326 1.5273868 0.46937013 0.3735286
