ov3/assignment3/checkpoints/7020.ckpt (torch, 910399 bytes, 10 tensors)

feature_extractor.0.weight f4 [32, 3, 5, 5]
0.03454392 0.23176116 0.052939173 -0.047276206 -0.0508038 0.17261006 -0.101838276 -0.17113076
-0.210001 -0.041261137 -0.14195389 -0.4480616 -0.3875523 -0.05527026 0.049573913 -0.104198895
-0.019254118 0.23158163 0.16165653 0.06457555 0.089660935 0.2532602 0.09387943 0.13214457
0.035061363 0.123849645 0.3307139 0.10591557 0.037130173 0.02563591 0.17450652 0.069742985
-0.25473022 -0.17645518 -0.10687642 -0.16879441 -0.44184947 -0.12629037 0.10616688 0.15317449
-0.10349453 -0.116650276 0.17669018 0.10366739 -0.029073238 -0.0518493 0.19774844 0.14636207
-0.069057375 -0.052030917 0.16932489 0.30302998 0.22621857 0.093346104 0.08140481 0.21153033
0.056565173 -0.22238341 -0.20749868 -0.123145975 0.05895331 -0.28491548 -0.31020927 0.009569845
0.07156832 -0.10643039 -0.09853162 0.06506302 0.13702227 0.035456948 -0.1012272 0.01319218
0.0147876 -0.033813477 -0.04736186 0.21915725 0.17635517 -0.059771895 -0.09773438 -0.03504106
-0.06991762 -0.1316869 -0.15013494 -0.089274384 0.2453952 -0.148401 -0.24775246 0.082247496
0.42742008 0.06946492 -0.0033010766 0.15214026 0.31537142 0.01977879 -0.36843702 0.011313273
0.13123128 -0.049985457 -0.28249496 -0.021377768 0.27681884 0.2505615 -0.012514734 -0.16389321
-0.11058564 0.062798314 -0.30982676 -0.32833925 -0.00028397332 0.22184776 -0.18493713 -0.16082233
0.056197416 0.46285027 0.1908536 -0.15883172 0.060863692 0.23471074 -0.033137035 -0.25554132
0.10106884 0.056623843 -0.14601506 -0.17359483 -0.10857691 0.026762754 0.07904788 -0.07178293
-0.22954968 -0.14749213 -0.014676389 -0.22788593 -0.33620822 -0.031145833 0.26691788 -0.18495862
-0.24416365 0.11662546 0.401675 0.2553042 0.05679381 0.18197353 0.3812284 0.02922491
-0.2586778 0.06449198 0.20423384 0.0020659072 -0.16126104 0.056662694 -0.102918796 -0.03216273
0.14319192 0.19633694 0.056092348 -0.16902806 -0.07008869 -0.10664556 0.19276859 0.15529418
0.045992587 -0.13955434 -0.3632117 -0.18416011 0.18886861 0.16942641 0.11460659 -0.038785975
-0.37317768 -0.035553664 0.10357822 0.0742364 0.2123171 0.01676099 -0.14547198 0.035540044
0.022774694 0.07189939 0.16737215 -0.153251 -0.07432797 -0.16374694 0.058722675 0.21742263
0.21888044 0.07004273 -0.14346409 -0.27382615 -0.19346945 0.2459356 0.2142242 0.24486868
-0.13902794 -0.25365824 -0.10759043 -0.11566682 0.035065375 0.16298547 -0.07965216 -0.043070402
-0.01080238 0.117823996 0.014540248 -0.049530555 -0.17866156 0.027350139 -0.14739338 0.083079584
0.20285472 0.11768886 0.047747433 -0.10815582 -0.20658152 -0.109315045 0.1595668 0.14269677
0.08612757 -0.1010202 -0.14081883 -0.11479054 -0.0382631 0.22694714 0.17378344 0.007574232
-0.13577296 0.050901104 -0.06879844 -0.0031707955 -0.00849713 -0.018497795 -0.11790429 0.08823934
0.065901436 0.17614047 0.09827697 -0.242404 0.010358844 -0.027948953 0.036249597 0.0884883
-0.15446156 0.012900751 -0.006897001 0.038525328 0.081953995 -0.22111727 0.052783884 -0.06779717
0.010185373 0.012374889 -0.099957034 -0.014299185 0.09735345 -0.0019137315 -0.036768522 -0.19935259
00000000: ed7d 0d3d cc52 6d3e bfd6 583d b2a4 41bd
00000010: a517 50bd b1c0 303e 9690 d0bd e73c 2fbe
00000020: 810a 57be 7001 29bd 5c5c 11be 5468 e5be
00000030: 416d c6be 1163 62bd 040e 4b3d 3b66 d5bd
00000040: d0ba 9dbc bc23 6d3e 4a89 253e 3040 843d
00000050: 27a0 b73d 52ab 813e dc43 c03d e850 073e
00000060: 819c 0f3d e2a4 fd3d 5553 a93e 43ea d83d
00000070: cf15 183d 6602 d23c d6b1 323e 69d5 8e3d
00000080: 006c 82be abb0 34be 06e2 dabd 71d8 2cbe
00000090: 183a e2be 4352 01be 056e d93d c6d9 1c3e
000000a0: f1f4 d3bd 57e6 eebd 45ee 343e 924f d43d
000000b0: 002b eebc ee5f 54bd 917e 4a3e f0df 153e
000000c0: f46d 8dbd 5f1e 55bd 8163 2d3e bf26 9b3e
000000d0: d7a5 673e 3e2c bf3d 91b7 a63d 689b 583e
000000e0: e2b0 673d 7ab8 63be 897a 54be f533 fcbd
000000f0: 0779 713d 71e0 91be c0d3 9ebe d7ca 1c3c
00000100: 6992 923d 2df8 d9bd f2ca c9bd c33f 853d
00000110: 914f 0c3e 4e3b 113d 3550 cfbd 0324 583c
00000120: b147 723c 0080 0abd 82fe 41bd c26a 603e
00000130: 7396 343e 60d3 74bd f628 c8bd 3787 0fbd
00000140: f830 8fbd eed8 06be f9bc 19be 7dd5 b6bd
00000150: e148 7b3e 6ff6 17be d2b2 7dbe 6071 a83d
00000160: ced6 da3e a043 8e3d e056 58bb a8ca 1b3e
00000170: 5d78 a13e 2107 a23c c7a3 bcbe 4e5b 393c
00000180: 7e61 063e 8dbd 4cbd 2ea3 90be 6e20 afbc
00000190: 33bb 8d3e 9949 803e 990a 4dbc 9fd3 27be
000001a0: b97a e2bd 679c 803d 9da1 9ebe 151c a8be
000001b0: 41e2 94b9 0f2c 633e 2960 3dbe 9cae 24be
000001c0: 432f 663d b6fa ec3e 206f 433e c8a4 22be
000001d0: 354c 793d 0358 703e b3ba 07bd 50d6 82be
000001e0: 2efd ce3d 67ee 673d f984 15be d8c2 31be
000001f0: 925d debd 903d db3c dbe3 a13d ee02 93bd
00000200: 120f 6bbe 2d08 17be 3d75 70bc ee5a 69be
00000210: 7c23 acbe 8c25 ffbc 76a9 883e cb65 3dbe
00000220: 0906 7abe 54d9 ee3d 58a8 cd3e 3bb7 823e
00000230: a0a0 683d 4557 3a3e 5e30 c33e 1469 ef3c
00000240: 6b71 84be 5f14 843d ad22 513e 2c64 073b
00000250: 9d21 25be 2417 683d 17c7 d2bd 11bd 03bd
00000260: e7a0 123e 8d0c 493e 17c1 653d b115 2dbe
00000270: a98a 8fbd fd68 dabd 2165 453e 7005 1f3e
00000280: b962 3c3d 55e7 0ebe e2f6 b9be 7894 3cbe
00000290: c666 413e 1e7e 2d3e dcb6 ea3d 0bde 1ebd
000002a0: 2511 bfbe b8a0 11bd d120 d43d 4109 983d
000002b0: a769 593e 584e 893c 9bf6 14be 7092 113d
000002c0: ff91 ba3c fd3f 933d 9b63 2b3e d5ed 1cbe
000002d0: 4339 98bd 47ad 27be 3087 703d 0aa4 5e3e
000002e0: 3222 603e 9072 8f3d 40e8 12be f132 8cbe
000002f0: db1c 46be 8bd6 7b3e 975d 5b3e dbbe 7a3e
00000300: 575d 0ebe 7edf 81be 5f58 dcbd bae2 ecbd
00000310: b6a0 0f3d aae5 263e ac20 a3bd 976a 30bd
00000320: 77fc 30bc b54d f13d 383a 6e3c 8de0 4abd
00000330: 0ef3 36be 660d e03c 4aee 16be a125 aa3d
00000340: 26b9 4f3e db06 f13d d092 433d cc80 ddbd
00000350: 1b8a 53be 91e0 dfbd 7b65 233e 1a1f 123e
00000360: a763 b03d aee3 cebd d032 10be 4d17 ebbd
00000370: c5b9 1cbd d564 683e 49f4 313e 4331 f83b
00000380: 1108 0bbe ad7d 503d 32e6 8cbd 1fcd 4fbb
00000390: 8c37 0bbc b088 97bc ce77 f1bd d4b6 b43d
000003a0: 55f7 863d 2b5e 343e 7045 c93d c138 78be
000003b0: 24b8 293c 34f5 e4bc 757a 143d 5b39 b53d
000003c0: 2c2b 1ebe ac5d 533c 3d00 e2bb bccc 1d3d
000003d0: 7fd7 a73d 916c 62be ea33 583d 3ed9 8abd
000003e0: 8de0 263c 0cc0 4a3c 46b6 ccbd 2147 6abc
000003f0: 3f61 c73d 2cd6 faba 979a 16bd 1623 4cbe

feature_extractor.0.bias f4 [32]
-0.24585015 -0.17696455 -0.3694312 0.108536 -0.05151525 -0.13248132 -0.17851214 -0.15473638
-0.1796307 -0.22934654 -0.18261158 0.60602987 -0.2625092 -0.14545922 -0.11788789 -0.49918127
-0.15141377 -0.31481132 -0.16892688 0.23318966 0.055628467 -0.2521082 -0.36339784 -0.054227106
0.246061 -0.21469395 -0.36672074 -0.13282299 -0.48880276 -0.24608473 -0.060586493 -0.057036128
00000000: 24c0 7bbe 3236 35be 1626 bdbe 1f48 de3d
00000010: a801 53bd 2fa9 07be e3cb 36be 3773 1ebe
00000020: 1cf1 37be d2d9 6abe 88fe 3abe c624 1b3f
00000030: 9b67 86be 43f3 14be 356f f1bd b094 ffbe
00000040: 360c 1bbe f32e a1be 2bfb 2cbe 45c9 6e3e
00000050: adda 633d 5314 81be 480f babe 3e1d 5ebd
00000060: 6af7 7b3e bbd8 5bbe d2c2 bbbe c002 08be
00000070: 5b44 fabe a3fd 7bbe 8b29 78bd b79e 69bd

feature_extractor.4.weight f4 [64, 32, 3, 3]
-0.027122755 -0.020123685 0.011468058 0.045987435 0.06849008 -0.008711027 -0.0067978366 0.0004902624
0.06239336 0.018487908 0.026364008 0.037573803 -0.032538887 0.13630083 0.076956116 0.026832908
-0.005744099 -0.022791682 0.02056885 0.036927205 -0.027628869 -0.025697142 0.06289325 0.00717781
-0.08230827 -0.04422868 0.044968884 -0.041604422 0.0023773792 0.025619948 -0.014717014 -0.027440524
0.048158504 0.004811275 0.01817913 -0.029716002 -0.058908366 0.039258957 0.047662072 -0.050815135
-0.058532145 -0.015991561 0.034288075 -0.023595043 0.03616241 -0.09142772 -0.105638 -0.01467273
-0.140221 -0.13034084 -0.11604194 -0.04212217 -0.124807104 -0.13598864 0.040046975 -0.03160643
-0.057792116 -0.010007344 -0.07945851 -0.0023869195 0.025953528 0.050506987 -0.067757234 0.009576205
0.05740504 0.07437968 -0.059050027 0.016221097 0.0123746535 0.030088939 -0.05760027 -0.0100455275
-0.048966184 -0.05355928 -0.011053486 0.044705614 -0.016631069 0.042488188 0.020672668 0.08020694
0.11088826 -0.022809815 -0.089165404 -0.038938314 -0.04766831 -0.10898666 -0.022852499 -0.07801139
-0.06310016 0.009956149 -0.06637598 -0.047056086 0.04188212 -0.08748053 0.030433122 -0.046285685
-0.013256334 0.010099695 0.02227624 -0.08207516 -0.047539 -0.024858432 0.057377774 -0.024467677
-0.04669423 0.0059980564 0.03167351 -0.048839632 -0.0055893385 -0.021690382 -0.043950323 -0.034398925
-0.067851655 -0.046388227 -0.010670251 -0.027185092 -0.052424517 0.037658744 0.008652078 0.04023155
-0.029687056 0.04234407 0.07126993 0.04476995 -0.05116883 0.017414201 -0.02962814 -0.021162562
-0.006399109 -0.06436388 0.015953846 -0.012741357 -0.024697745 -0.0033398492 -0.06317473 -0.054905225
0.030471696 -0.021480126 -0.04219834 -0.028662227 0.039245047 0.0021962558 0.0013587793 -0.011479239
-0.0773406 -0.01522123 -0.013651566 -0.017397458 -0.039694816 0.018933563 0.013356334 0.066169545
0.030212926 0.07499716 0.11903462 0.10151533 -0.05549539 0.05195538 0.062341265 -0.012385808
-0.05695982 -0.02918335 -0.10554956 0.0077276537 0.0624148 0.01843941 -0.0057439283 0.0061280886
0.086159684 -0.020895498 -0.043628227 -0.034619827 0.019820604 -0.024853926 0.0013757383 -0.009843502
0.018444251 -0.06947114 -0.03686436 0.027334796 -0.057251655 0.0075336467 -0.065242514 -0.05944195
-0.048104543 -0.082096435 0.011030712 0.022314835 -0.04531843 -0.007595508 0.0251736 0.02816104
-0.010459717 -0.059644796 0.05664611 -0.015485151 0.04021627 0.011156669 -0.0043049897 0.035786334
0.02026778 0.014272476 0.03952754 0.101380266 -0.048019316 0.086393595 0.036910716 -0.07076002
-0.032160554 -0.011464289 -0.030828105 -0.019840484 0.01239004 0.049740452 0.016968515 -0.001781195
-0.0064914483 0.021328367 0.013172546 0.04827043 0.16867311 0.001938355 -0.011148821 0.015896268
-0.021199867 0.0027890638 0.054815136 0.017527532 -0.011550735 0.051793344 0.02909956 0.03480807
0.04149764 0.08875146 -0.006490692 -0.0031962527 -0.0052327495 0.03324034 0.04853952 0.030724606
0.041894056 0.030931726 -0.06611576 -0.015954513 0.015821012 0.0016060291 -0.04114003 0.025467608
-0.052255742 -0.07655396 -0.044806734 0.019439239 -0.11602301 -0.031571064 -0.079984054 -0.0642924
00000000: 8a30 debc 6dda a4bc 86e4 3b3c 525d 3c3d
00000010: 8744 8c3d b2b8 0ebc 63c0 debb f484 003a
00000020: 2e90 7f3d f473 973c 55f9 d73c fde6 193d
00000030: 7f47 05bd 7292 0b3e 2b9b 9d3d b0d0 db3c
00000040: ff38 bcbb 9fb5 babc 0180 a83c fb40 173d
00000050: f055 e2bc d082 d2bc 2dce 803d d633 eb3b
00000060: 3d91 a8bd 2229 35bd 4b31 383d 6669 2abd
00000070: cecd 1b3b ede0 d13c a11f 71bc f3ca e0bc
00000080: da41 453d e6a7 9d3b 66ec 943c f96e f3bc
00000090: e649 71bd 00ce 203d 4e39 433d 8823 50bd
000000a0: 67bf 6fbd bc00 83bc a771 0c3d 644a c1bc
000000b0: 091f 143d 753e bbbd bc58 d8bd e465 70bc
000000c0: 1896 0fbe 1278 05be 66a7 edbd 4c88 2cbd
000000d0: de9a ffbd 9b40 0bbe 4c08 243d be75 01bd
000000e0: 6db7 6cbd d8f5 23bc 25bb a2bd dd6d 1cbb
000000f0: 7e9c d43c 6ae0 4e3d 4ec4 8abd 84e5 1c3c
00000100: 8c21 6b3d 6054 983d 71de 71bd 1be2 843c
00000110: 0fbf 4a3c 147d f63c 43ee 6bbd ff95 24bc
00000120: c490 48bd fa60 5bbd ae19 35bc 3c1d 373d
00000130: e13d 88bc 1808 2e3d ba59 a93c 8943 a43d
00000140: 6219 e33d a6db babc 5a9c b6bd c87d 1fbd
00000150: d93f 43bd 6634 dfbd 2a35 bbbc 70c4 9fbd
00000160: a83a 81bd 1e1f 233c 21f0 87bd e2bd 40bd
00000170: 968c 2b3d fe28 b3bd e24e f93c 0f96 3dbd
00000180: 1831 59bc 3179 253c a97c b63c 0617 a8bd
00000190: 41b8 42bd e9a3 cbbc f504 6b3d 7070 c8bc
000001a0: 7342 3fbd 588b c43b 15bc 013d 110c 48bd
000001b0: c526 b7bb 07b0 b1bc 4105 34bd e3e5 0cbd
000001c0: cff5 8abd 9501 3ebd 47d2 2ebc 45b3 debc
000001d0: 17bb 56bd 0e40 1a3d 72c1 0d3c d6c9 243d
000001e0: 4532 f3bc fa70 2d3d f8f5 913d b260 373d
000001f0: 6896 51bd 3aa8 8e3c b7b6 f2bc 1c5d adbc
00000200: 9eaf d1bb 36d1 83bd a4b1 823c 20c1 50bc
00000210: ed52 cabc 5fe1 5abb c161 81bd 4de4 60bd
00000220: c79f f93c 17f7 afbc 2bd8 2cbd 0ccd eabc
00000230: 6abf 203d 0fef 0f3b 1119 b23a 6b13 3cbc
00000240: c064 9ebd 7762 79bc d1aa 5fbc 1d85 8ebc
00000250: 0897 22bd 8f1a 9b3c 86d4 5a3c e683 873d
00000260: 1981 f73c 1c98 993d 6cc8 f33d 45e7 cf3d
00000270: 224f 63bd 2acf 543d 8e59 7f3d d8ed 4abc
00000280: b34e 69bd ec11 efbc 5e2a d8bd 4238 fd3b
00000290: a9a6 7f3d 3f0e 973c 9037 bcbb 22ce c83b
000002a0: 7d74 b03d 092d abbc 83b3 32bd 85cd 0dbd
000002b0: d25e a23c 769a cbbc 1e52 b43a a446 21bc
000002c0: 6618 973c e346 8ebd 15ff 16bd 39ed df3c
000002d0: b680 6abd cfdc f63b de9d 85bd 6779 73bd
000002e0: 4509 45bd 2d22 a8bd 29ba 343c 9acd b63c
000002f0: d19f 39bd bde3 f8bb de38 ce3c fbb1 e63c
00000300: 3c5f 2bbc 1a4e 74bd c005 683d 6eb5 7dbc
00000310: d1b9 243d 76ca 363c df10 8dbb b194 123d
00000320: 9e08 a63c 1ad7 693c a1e7 213d 75a0 cf3d
00000330: e7af 44bd 20ef b03d b12f 173d a1ea 90bd
00000340: c9ba 03bd b7d4 3bbc 398b fcbc 8388 a2bc
00000350: 98ff 4a3c a5bc 4b3d 8e01 8b3c fd76 e9ba
00000360: 37b6 d4bb d4b8 ae3c aad1 573c 37b7 453d
00000370: a5b8 2c3e 6710 fe3a 8ba9 36bc e438 823c
00000380: 58ab adbc bac8 363b d685 603d e695 8f3c
00000390: 4b3f 3dbc 4225 543d 3362 ee3c e892 0e3d
000003a0: 6ef9 293d 53c3 b53d dfaf d4bb 3978 51bb
000003b0: 7c77 abbb 0627 083d 60d1 463d 2bb2 fb3c
000003c0: 1a99 2b3d 8864 fd3c b367 87bd 0ab3 82bc
000003d0: 119b 813c 6581 d23a 7382 28bd 72a1 d03c
000003e0: 1e0a 56bd 53c8 9cbd 4487 37bd 0a3f 9f3c
000003f0: 799d edbd a950 01bd aece a3bd bcab 83bd

feature_extractor.4.bias f4 [64]
-0.14794734 0.025986783 -0.05549768 -0.09175494 -0.083292626 -0.2077381 0.3486845 0.0784763
0.099355556 -0.0062643182 0.024268467 -0.2697309 0.017205445 -0.1564086 0.27354613 -0.054868355
-0.106278926 -0.11032764 0.09681789 -0.15436669 0.0886677 -0.280647 -0.32136947 0.33160996
-0.2661948 -0.10371175 -0.10929786 0.5153428 0.13028434 -0.15573987 -0.1611752 -0.010506356
-0.1503851 0.44576332 -0.33298847 0.009324074 0.19010024 0.14368226 0.18575038 0.04977786
-0.09782573 0.13995788 0.12727763 -0.28286642 0.05166206 -0.048391532 0.033121493 0.38512427
0.0062006805 -0.05410279 -0.039546214 -0.0869966 -0.10305325 -0.06874901 -0.11590396 0.013371534
-0.13239118 0.3650743 -0.31073612 0.035940636 -0.22668704 -0.08973219 0.05217817 -0.1184827
00000000: 827f 17be 3ce2 d43c 8951 63bd 04ea bbbd
00000010: 5395 aabd 4cb9 54be c686 b23e 2fb8 a03d
00000020: ed7a cb3d e944 cdbb aace c63c 2b1a 8abe
00000030: 6ff2 8c3c 9329 20be 3d0e 8c3e a4bd 60bd
00000040: c4a8 d9bd 75f3 e1bd 7548 c63d 4d12 1ebe
00000050: 6997 b53d f7b0 8fbe 8a8a a4be c8c8 a93e
00000060: af4a 88be d366 d4bd 8ed7 dfbd 81ed 033f
00000070: 4269 053e 467a 1fbe 1d0b 25be da22 2cbc
00000080: 8dfe 19be 173b e43e 777d aabe 00c4 183c
00000090: a3a9 423e 7121 133e 5935 3e3e dfe3 4b3d
000000a0: db58 c8bd 1e51 0f3e 1155 023e ded3 90be
000000b0: 999b 533d 3336 46bd 67aa 073d 022f c53e
000000c0: 142f cb3b e39a 5dbd 36fb 21bd 462b b2bd
000000d0: 950d d3bd 48cc 8cbd 0e5f edbd 4714 5b3c
000000e0: 8e91 07be 05eb ba3e ce18 9fbe 7d36 133d
000000f0: a620 68be 83c5 b7bd c7b8 553d 0fa7 f2bd

feature_extractor.8.weight f4 [128, 64, 3, 3]
-0.0052340017 0.010732111 -0.009457194 -0.034210924 0.02798166 0.036851533 0.018207442 -0.005957069
0.012325505 0.00844666 0.018603515 0.026685398 0.03062824 0.004502839 0.017446533 0.008707426
-0.016540037 0.038950246 0.066088244 0.035690185 0.0060691372 -0.02693002 -0.048305303 -0.014727161
-0.037688464 -0.042969387 -0.026057847 0.022921624 0.052516654 -0.03815095 0.037686348 -0.012277807
-0.039196227 0.06343522 -0.024288468 0.02353307 0.029828899 0.012277385 -0.011565433 -0.026148224
0.012501716 -0.033404674 0.033188112 0.0012593805 -0.05117428 0.050679453 -0.01870958 0.0103853475
-0.07508312 -0.026487103 -0.055359397 -0.07103075 -0.056420904 -0.04759594 -0.034441974 0.021550488
-0.002331267 -0.00906536 -0.021740057 -0.010015713 -0.025929745 0.037931446 0.018777642 0.044175662
-0.01995763 0.040932555 -0.069000766 -0.061464522 0.013709724 0.012887382 -0.010710533 -0.053279083
-0.02794484 0.02404393 -0.010454468 -0.00921414 0.026915414 -0.041629866 0.0019532929 0.0053741033
-0.044694558 0.030238712 0.018271498 -0.010739089 -0.053362045 -0.049271114 -0.010957501 -0.011893837
-0.043662056 0.016782556 0.057701297 -0.012804163 0.046060808 0.014877626 0.07286286 0.018955493
-0.028160961 -0.008700608 0.02310534 0.02166022 0.07451959 0.021653244 -0.036195636 0.036478177
-0.02459731 -0.022863429 -0.0519507 -0.019616464 -0.015894089 -0.008257135 0.016867697 -0.029575694
-0.04232629 -0.025058327 -0.025308166 -0.01967955 0.008555438 -0.020364165 0.016123148 -0.021916183
-0.01252463 0.05986142 0.066212036 0.058227714 0.0003899568 0.033146486 -0.0168391 0.012291426
-0.071867846 -0.028543394 -0.026935494 0.029348867 -0.008209646 0.054250926 0.023879044 0.017232282
-0.00448923 -0.049683485 -0.0052751023 -0.080932856 -0.016310614 0.04562836 -0.054998234 -0.05597205
-0.009831376 0.008779229 -0.035615265 -0.021708373 0.02221195 -0.01777705 -0.00105458 0.03980733
0.01701283 0.0006010922 -0.0108809015 0.06998591 -0.085963644 -0.066561066 -0.004916907 -0.03342332
-0.063271314 -0.013909358 0.015184769 0.022614809 0.0655286 0.030981014 0.04597727 0.019789608
-0.036876418 0.0047180564 0.01802525 0.0013343624 0.009935382 -0.02115614 -0.040818483 -0.057047512
-0.06409433 0.00034712956 -0.037561506 -0.04937639 0.017138293 0.03618721 -0.04291587 0.02306211
0.038090594 -0.016699556 0.038422804 0.017094158 -0.013079626 -0.0013884112 0.06392264 0.07298003
0.027673297 0.053675495 -0.00486586 -0.04770898 -0.03069194 0.008628633 -0.02378038 -0.048260834
-0.017690577 -0.01645791 -0.0062951315 0.01869722 0.0039791977 -0.015216125 -0.007154693 -0.034744076
-0.016042309 0.008231527 -0.027907632 0.012729838 0.013469096 -0.029974382 -0.044559333 -0.014693488
0.0661659 0.052014183 0.009285932 0.039352823 0.02849244 0.017780516 0.016363403 -0.044526633
-0.01949143 0.010871753 -0.0073185167 0.026649617 -0.06366341 -0.064948 -0.01970885 -0.056916658
-0.05217054 -0.011863522 -0.010170753 0.02744755 -0.01070202 0.03802763 0.020446815 0.008890188
0.005293571 -0.0051623303 -0.0032237826 -0.054963786 -0.011914987 -0.035498302 -0.061656993 -0.04367772
-0.041682113 -0.0549065 -0.044354625 -0.02420612 -0.0032584807 0.025454193 0.04423033 0.010296103
00000000: fd81 abbb bcd5 2f3c 59f2 1abc c120 0cbd
00000010: cb39 e53c a2f1 163d c627 953c 8433 c3bb
00000020: eaf0 493c dc63 0a3c 6666 983c 569b da3c
00000030: 13e8 fa3c 8d8c 933b 08ec 8e3c 97a9 0e3c
00000040: f97e 87bc 4b8a 1f3d 4659 873d df2f 123d
00000050: 9ddf c63b 589c dcbc c8db 45bd 314a 71bc
00000060: 385f 1abd ab00 30bd 4477 d5bc 21c6 bb3c
00000070: b41b 573d 2c44 1cbd 005d 1a3d db28 49bc
00000080: 398c 20bd 53ea 813d 9cf8 c6bc 6dc8 c03c
00000090: bc5b f43c 1627 493c f17c 3dbc cd34 d6bc
000000a0: ffd3 4c3c 57d3 08bd 42f0 073d cc11 a53a
000000b0: 1f9c 51bd 4295 4f3d d544 99bc 4e27 2a3c
000000c0: 2ec5 99bd 7bfb d8bc 89c0 62bd 9278 91bd
000000d0: 9b19 67bd f6f3 42bd 0713 0dbd a68a b03c
000000e0: 2cc8 18bb e086 14bc 3418 b2bc f218 24bc
000000f0: 9e6a d4bc 015e 1b3d 92d3 993c 8af1 343d
00000100: 2f7e a3bc e5a8 273d 4650 8dbd 39c2 7bbd
00000110: c09e 603c 9925 533c 3b7b 2fbc 2b3b 5abd
00000120: 94ec e4bc c7f7 c43c 3849 2bbc e7f6 16bc
00000130: b77d dc3c 1484 2abd d102 003b 3f19 b03b
00000140: a411 37bd 2db7 f73c 1cae 953c 01f3 2fbc
00000150: 2992 5abd 82d0 49bd 1787 33bc 5ede 42bc
00000160: fcd6 32bd 927b 893c 3258 6c3d 8dc8 51bc
00000170: 42aa 3c3d 49c1 733c 2039 953d 8d48 9b3c
00000180: d1b1 e6bc ff8c 0ebc 6947 bd3c c670 b13c
00000190: ba9d 983d 2562 b13c e041 14bd 246a 153d
000001a0: 4c80 c9bc 164c bbbc 42ca 54bd b5b2 a0bc
000001b0: 5234 82bc ef48 07bc 202e 8a3c ba48 f2bc
000001c0: 555e 2dbd 1f47 cdbc 1253 cfbc 0237 a1bc
000001d0: 1c2c 0c3c c0d2 a6bc b114 843c 9189 b3bc
000001e0: 1b34 4dbc 4031 753d 2d9a 873d 2f80 6e3d
000001f0: 1e73 cc39 9cc4 073d 27f2 89bc fa61 493c
00000200: 732f 93bd d6d3 e9bc d3a7 dcbc 096d f03c
00000210: c081 06bc 3836 5e3d fc9d c33c b72a 8d3c
00000220: 641a 93bb e980 4bbd c4da acbb 20c0 a5bd
00000230: d69d 85bc cee4 3a3d d445 61bd f342 65bd
00000240: c813 21bc c1d6 0f3c 50e1 11bd c2d5 b1bc
00000250: d6f5 b53c 2da1 91bc d539 8aba 030d 233d
00000260: 7e5e 8b3c 9d92 1d3a cf45 32bc c654 8f3d
00000270: b50d b0bd 2b51 88bd 011e a1bb e4e6 08bd
00000280: 6494 81bd 13e4 63bc 8ac9 783c b142 b93c
00000290: dc33 863d e5cb fd3c a952 3c3d d11d a23c
000002a0: ba0b 17bd ed99 9a3b b0a9 933c c6e5 ae3a
000002b0: 03c8 223c a44f adbc 4831 27bd a7aa 69bd
000002c0: e343 83bd f1fe b539 18da 19bd e63e 4abd
000002d0: 9b65 8c3c 0a39 143d 8dc8 2fbd c0ec bc3c
000002e0: e204 1c3d 82cd 88bc 3b61 1d3d 0c09 8c3c
000002f0: ed4b 56bc 59fb b5ba e0e9 823d 8e76 953d
00000300: 1cb3 e23c d6da 5b3d cb71 9fbb 7e6a 43bd
00000310: aa6d fbbc 1c5f 0d3c 12cf c2bc 27ad 45bd
00000320: d4eb 90bc bdd2 86bc 6447 cebb ea2a 993c
00000330: ee63 823b 0e4d 79bc ea71 eabb ce4f 0ebd
00000340: 296b 83bc 87dd 063c 8c9e e4bc cf90 503c
00000350: 7cad 5c3c d68c f5bc d983 36bd f5bc 70bc
00000360: fd81 873d d30c 553d 0624 183c 6d30 213d
00000370: fa68 e93c 72a8 913c 8b0c 863c 8f61 36bd
00000380: 7eac 9fbc 701f 323c 2bd0 efbb 4c50 da3c
00000390: f661 82bd 7503 85bd 7474 a1bc 7121 69bd
000003a0: c7b0 55bd 385f 42bc 3ba3 26bc afd9 e03c
000003b0: 8657 2fbc dcc2 1b3d 1480 a73c 27a8 113c
000003c0: b175 ad3b c428 a9bb 1946 53bb b521 61bd
000003d0: 1437 43bc ab66 11bd 0b8c 7cbd 69e7 32bd
000003e0: ddba 2abd a3e5 60bd 32ad 35bd ea4b c6bc
000003f0: 3c8c 55bb 5085 d03c dd2a 353d fcb0 283c

feature_extractor.8.bias f4 [128]
0.07635137 0.01663759 0.029082563 0.2368 0.1257506 -0.116371766 0.20295274 -0.09684749
-0.11109009 0.055456426 -0.040886898 0.11222278 -0.039656173 -0.07980902 0.04326726 0.065950215
0.031152558 0.052971665 0.085325465 -0.031740114 -0.1712118 -0.17552963 0.061360054 0.083218046
0.15193321 -0.10798226 -0.048150867 -0.057305913 -0.006251681 0.073793374 0.17385314 -0.0070188125
-0.038199153 -0.019090513 -0.08952442 0.04516929 0.06925506 -0.07959227 -0.09701365 -0.0916625
0.049310252 0.0024144202 0.07458445 0.17933685 -0.053882074 -0.08156136 0.0017163801 -0.006894368
0.12215478 0.03185075 0.05492294 -0.00078818074 0.12805323 0.20604378 0.14066462 -0.21329059
0.08671747 0.27594098 -0.03551404 0.16049321 0.16074032 0.014599327 -0.12995997 -0.0059958794
0.09766543 0.15654188 0.23752041 0.11325135 0.02114439 0.043433554 -0.07690076 0.07676317
0.06741721 0.21604891 -0.06721221 0.03922651 -0.025711847 0.16047536 0.039303154 0.09942506
0.06954304 0.0110787265 0.2196482 0.09236824 0.10162629 -0.017087575 0.04883493 0.017337054
-0.12097195 0.053795274 0.114862196 -0.016397003 -0.1480584 0.009073149 0.21921952 -0.052966908
0.123623915 -0.10471662 0.14057577 0.035001207 0.010067218 0.16242117 0.045141093 0.043511335
0.12582818 0.009677296 -0.14188148 0.0051230085 0.07776048 0.031295978 0.09263213 0.061146654
-0.00893635 0.166103 0.19087617 0.11311101 -0.13113138 -0.07445341 0.32423913 -0.0053184265
0.06545748 -0.08801986 0.009959979 -0.18514737 -0.09921864 -0.061691195 0.18407597 0.11675998
00000000: 1b5e 9c3d 8e4b 883c 8e3e ee3c b37b 723e
00000010: c4c4 003e 5254 eebd d8d2 4f3e fa57 c6bd
00000020: 3383 e3bd 4726 633d 0579 27bd 0fd5 e53d
00000030: 836e 22bd e972 a3bd 0339 313d e810 873d
00000040: a633 ff3c d1f8 583d 1ebf ae3d ec01 02bd
00000050: 2552 2fbe 0abe 33be ae54 7b3d 396e aa3d
00000060: 6194 1b3e ce25 ddbd d839 45bd 9bb9 6abd
00000070: e7da ccbb fb20 973d 8f06 323e 11fe e5bb
00000080: b776 1cbd b563 9cbc 9458 b7bd 6f03 393d
00000090: 99d5 8d3d 4601 a3bd 18af c6bd 8cb9 bbbd
000000a0: 8cf9 493d 403b 1e3b bbbf 983d 14a4 373e
000000b0: 73b3 5cbd a409 a7bd 29f8 e03a 27ea e1bb
000000c0: 492c fa3d ef75 023d e0f6 603d ea9d 4eba
000000d0: 6320 033e 24fd 523e 630a 103e d968 5abe
000000e0: ee98 b13d 2348 8d3e 2c77 11bd 5558 243e
000000f0: 1c99 243e 0432 6f3c 3a14 05be 1579 c4bb
00000100: d004 c83d 844c 203e 8d38 733e 53f0 e73d
00000110: 0037 ad3c 62e7 313d 257e 9dbd 0236 9d3d
00000120: 0912 8a3d ed3b 5d3e 8ea6 89bd faab 203d
00000130: a7a1 d2bc a753 243e 58fc 203d 5e9f cb3d
00000140: 956c 8e3d 8c83 353c 75eb 603e 8f2b bd3d
00000150: 7221 d03d 3efb 8bbc 2307 483d 7006 8e3c
00000160: 24c0 f7bd 6f58 5c3d df3c eb3d 0253 86bc
00000170: 9f9c 17be 8ca7 143c 157b 603e d4f3 58bd
00000180: 892e fd3d ab75 d6bd 18f3 0f3e 6d5d 0f3d
00000190: f9f0 243c bc51 263e dee5 383d f138 323d
000001a0: 1ad9 003e 858d 1e3c 6149 11be e9de a73b
000001b0: e340 9f3d 3630 003d eab5 bd3d ea74 7a3d
000001c0: c569 12bc e816 2a3e 0b75 433e bfa6 e73d
000001d0: 4e47 06be 087b 98bd ac02 a63e 3246 aebb
000001e0: 920e 863d c243 b4bd 2e2f 233c 4697 3dbe
000001f0: 2433 cbbd e8af 7cbd 697e 3c3e db1f ef3d

classifier.0.weight f4 [64, 2048]
0.013639612 -0.007338291 -0.00031301475 -0.018913003 0.01826043 0.0044252286 -0.023444183 0.00815385
0.00025205011 0.013845089 0.011768678 0.013480438 0.019211192 0.012829743 0.01420262 -0.020114481
0.018372359 -0.011888017 0.017931916 0.002035044 0.0033651728 0.00034718687 0.01866082 0.007162452
-0.002551434 -0.026799949 -0.0002535984 -0.030447744 -0.022922732 0.015112819 -0.020390105 -0.015171499
-0.0016817938 0.017655838 -0.019968364 -0.02059466 -0.0042406623 -0.029444879 -0.0048735715 -0.02352939
-0.021602968 -0.0029351923 0.012364926 -0.003246831 0.008306684 0.011777032 0.012126159 -0.018277515
-0.0053676353 0.017150313 0.009482779 0.018060377 -0.00380825 -0.034808096 -0.0072707036 -0.010542721
-0.016955767 -0.025795799 -0.029460564 0.0066818674 -0.02115185 -0.017023705 0.0043630903 -0.00012557274
0.01891325 0.002565447 -0.034792952 -0.009692035 0.009936731 -0.008938483 0.038530752 -0.024185011
-0.016999045 0.033726152 0.021436486 -0.010444933 -0.007031719 0.014199 0.03680888 -0.014925153
-0.020430643 -0.01589114 -0.012305647 0.010502646 0.01126093 -0.025858229 -0.009356539 0.0018847506
0.011010824 -0.009394928 0.005066321 0.0035732249 -0.021005271 -0.0048655467 0.005115492 0.014213492
0.015829211 -0.002531317 -0.015051396 0.004263782 0.012677058 0.015728423 -0.018617947 0.022735579
0.005114289 0.0041290917 0.017056743 0.014351329 0.0162844 0.018773055 -0.016989712 0.0058636693
0.0024899829 -0.020721361 0.008129058 -0.014317502 -0.009751807 -0.018562106 0.010651852 -0.026256584
0.0043321606 0.031723283 0.021816 -0.021059373 -0.019863293 0.016088344 -0.015870519 -0.015030413
-0.010706361 -0.010846326 0.0065471064 0.0062791943 -0.010872369 -0.0045768744 0.0017647013 0.018882046
-0.012162265 0.0028867347 -0.0033857545 0.0177849 -0.019316765 -0.011288788 -0.0105060795 -0.0074205743
0.018223979 0.0022590682 0.017463205 -0.001621629 0.0021813984 0.0087336 -0.030281922 0.011972312
0.0045262035 -0.012149151 0.012559655 -0.0061200825 -0.015195459 0.0006981917 0.01214536 -0.013605761
-0.026271008 0.0061662886 0.0060482766 -0.013598163 -0.0069741867 0.009384153 -0.0032260243 0.00045201814
0.0021342898 -0.003516088 -0.011901699 0.018408626 0.015523167 -0.027410582 -0.004298316 -0.005386567
0.012448363 0.009584775 0.0018706243 -0.004960152 -0.021214971 -0.015194515 -0.019232044 -0.015390087
0.0041708536 -0.0071576936 0.0017460721 0.004097781 0.0071736206 -0.00220554 -0.004941012 0.007074032
-0.007497324 0.0072001573 -0.0015081377 0.01697902 0.022260899 -0.007255881 -0.03278111 -0.009577849
0.012476429 0.007907104 -0.014880795 -0.028635029 -0.008294212 0.01726352 -0.031135196 -0.009078929
0.004182098 0.0069827493 -0.010248615 0.032371134 0.010289818 -0.03924213 -0.011374509 0.007617617
-0.0013655827 0.0061567067 0.009281784 -0.021370694 -0.0021310863 -0.003605333 0.0018773081 0.0037755987
-0.014768572 -0.029217305 0.0148572195 -0.027588468 0.0060220957 -0.025512582 0.003781031 -0.020360433
0.036000554 0.013251775 0.008000041 -0.013831429 0.0061655953 0.0076807393 0.022516036 0.010194556
-0.011039832 -0.025447382 -0.012168884 0.0135425385 -0.00562212 0.016027503 0.008836132 -0.00034028245
-0.0065429616 -0.0051545757 -0.0010982555 0.009783364 0.008928593 -0.009011375 0.0086470945 0.019269155
00000000: ae78 5f3c 0c76 f0bb 211c a4b9 71ef 9abc
00000010: e696 953c 8201 913b 040e c0bc ba97 053c
00000020: 9825 8439 83d6 623c 6ad1 403c 0edd 5c3c
00000030: ca60 9d3c d833 523c 1bb2 683c 20c7 a4bc
00000040: a181 963c f5c5 42bc f4e5 923c 5f5e 053b
00000050: 3b8a 5c3b a206 b639 93de 983c 01b3 ea3b
00000060: f635 27bb 918b dbbc 67f5 84b9 8c6d f9bc
00000070: 74c8 bbbc c29b 773c 2609 a7bc e191 78bc
00000080: a36f dcba faa2 903c b294 a3bc 22b6 a8bc
00000090: 41f5 8abb 6336 f1bc 7bb2 9fbb b5c0 c0bc
000000a0: b5f8 b0bc 5b5c 40bb 4296 4a3c c9c8 54bb
000000b0: c218 083c 74f4 403c ccac 463c baba 95bc
000000c0: fde2 afbb d07e 8c3c a85d 1b3c 5bf3 933c
000000d0: d593 79bb ef92 0ebd 153f eebb 60bb 2cbc
000000e0: d2e6 8abc b651 d3bc 4857 f1bc 91f3 da3b
000000f0: a546 adbc 4c75 8bbc 41f8 8e3b 2dac 03b9
00000100: f6ef 9a3c 0f21 283b 0e83 0ebd 57cb 1ebc
00000110: accd 223c b772 12bc 6cd2 1d3d a51f c6bc
00000120: 9541 8bbc 6f24 0a3d 929b af3c 3921 2bbc
00000130: 566a e6bb eca2 683c e8c4 163d a188 74bc
00000140: 2a5e a7bc 232e 82bc a09d 49bc 4a13 2c3c
00000150: c47f 383c a3d4 d3bc 2b4c 19bc bc09 f73a
00000160: be66 343c 2fed 19bc 6203 a63b c42c 6a3b
00000170: 3f13 acbc 2a6f 9fbb db9f a73b b5df 683c
00000180: 43ac 813c 74e4 25bb 219a 76bc 32b7 8b3b
00000190: 6fb3 4f3c e5d8 803c aa84 98bc f73f ba3c
000001a0: c495 a73b 554d 873b 95ba 8b3c d621 6b3c
000001b0: dd66 853c f3c9 993c 022e 8bbc 0624 c03b
000001c0: fb2e 233b d8bf a9bc be2f 053c f593 6abc
000001d0: 0bc6 1fbc 8f0f 98bc 1b85 2e3c 0c18 d7bc
000001e0: ccf4 8d3b 46f0 013d 78b7 b23c b584 acbc
000001f0: 58b8 a2bc b4cb 833c e402 82bc 1f42 76bc
00000200: bc69 2fbc cab4 31bc 1c89 d63b b3c1 cd3b
00000210: 0522 32bc 9bf9 95bb 8d4d e73a 85ae 9a3c
00000220: 3d44 47bc 5f2f 3d3b 89e3 5dbb a3b1 913c
00000230: 313e 9ebc 9cf4 38bc b121 2cbc 4a28 f3bb
00000240: 744a 953c e00c 143b ff0e 8f3c d78c d4ba
00000250: cbf5 0e3b 6017 0f3c cb11 f8bc 8427 443c
00000260: 8c50 943b 3c0d 47bc 03c7 4d3c f98a c8bb
00000270: 60f6 78bc da06 373a 55fd 463c b3ea 5ebc
00000280: 4c36 d7bc 940e ca3b 9f30 c63b d4ca 5ebc
00000290: b887 e4bb febf 193c b56b 53bb d9fc ec39
000002a0: 71df 0b3b 2b6e 66bb 58ff 42bc b0cd 963c
000002b0: e254 7e3c 288c e0bc e3d8 8cbb cd81 b0bb
000002c0: 38f4 4b3c 7609 1d3c bc2f f53a c588 a2bb
000002d0: 05cb adbc 6af2 78bc 858c 9dbc b426 7cbc
000002e0: a8ab 883b 168b eabb 75dc e43a ae46 863b
000002f0: b110 eb3b d28a 10bb 36e8 a1bb 48cd e73b
00000300: 1dac f5bb 4cef eb3b b4ac c5ba 9617 8b3c
00000310: 7d5c b63c bec2 edbb 7c45 06bd 69ec 1cbc
00000320: f069 4c3c cc8c 013c 94ce 73bc 0294 eabc
00000330: 72e4 07bc 3a6c 8d3c 3d0f ffbc cabf 14bc
00000340: fb09 893b 8ccf e43b cfe9 27bc 9897 043d
00000350: a096 283c 5bbc 20bd 265c 3abc 349d f93b
00000360: 5afd b2ba 33be c93b a012 183c 9811 afbc
00000370: b2a9 0bbb 7347 6cbb 0210 f63a 0970 773b
00000380: e1f7 71bc 2159 efbc b26b 733c 3601 e2bc
00000390: 0055 c53b c3ff d0bc 2ccb 773b ecca a6bc
000003a0: 5175 133d f91d 593c 9b12 033c 389d 62bc
000003b0: c308 ca3b b6ae fb3b 8d73 b83c 1107 273c
000003c0: 69e0 34bc 0777 d0bc 0060 47bc 86e1 5d3c
000003d0: c339 b8bb 1c4c 833c 6cc5 103c f067 b2b9
000003e0: 5766 d6bb b7e7 a8bb 57f3 8fba 674a 203c
000003f0: 3c49 123c 72a4 13bc 8bac 0d3c 59da 9d3c

classifier.0.bias f4 [64]
0.023618475 0.02788062 0.024815114 0.27446565 0.15537335 0.021168064 -0.006710713 0.024392372
-0.0999579 0.03287379 0.0021989539 0.094585575 0.121668816 -0.0771691 0.033040974 0.07962423
-0.0008524756 0.0646215 -0.014724702 0.0036630437 -0.017901044 -0.05597153 -0.035572574 -0.023164587
0.04448339 0.04140341 0.08585011 0.16237114 0.010562938 0.028097397 0.030105844 0.02728982
-0.087818235 0.017700769 0.13027227 0.20003249 0.06319641 0.049141187 0.14292817 0.23521157
-0.20849437 0.038459085 0.073743045 0.27035657 -0.020027792 0.12833264 0.04459961 0.08948393
0.12062276 0.020628681 0.22449952 0.0413928 -0.10693413 0.17177424 0.08217823 -0.029789997
0.115513586 -0.08342963 0.22010058 -0.061166167 -0.017117795 -0.048187334 0.043751255 -0.00020365579
00000000: 887b c13c e665 e43c 1149 cb3c c386 8c3e
00000010: 311a 1f3e a668 ad3c 8ae5 dbbb 83d2 c73c
00000020: bab6 ccbd aba6 063d 531c 103b 15b6 c13d
00000030: 802d f93d d50a 9ebd f955 073d 0712 a33d
00000040: ab78 5fba 4758 843d e03f 71bc ad0f 703b
00000050: 36a5 92bc 6742 65bd 8cb4 11bd a9c3 bdbc
00000060: 3734 363d 9f96 293d 2fd2 af3d 9f44 263e
00000070: 2c10 2d3c 832c e63c 88a0 f63c e78e df3c
00000080: 0cda b3bd 3401 913c 1866 053e 51d5 4c3e
00000090: 1f6d 813d 4548 493d c35b 123e 4ddb 703e
000000a0: 8c7f 55be 4687 1d3d 9806 973d 2d6c 8a3e
000000b0: 5311 a4bc a269 033e 15ae 363d 5a43 b73d
000000c0: 1109 f73d 7bfd a83c 34e3 653e 7f8b 293d
000000d0: 4800 dbbd 96e5 2f3e 0f4d a83d 270a f4bc
000000e0: 6392 ec3d 27dd aabd 0c62 613e 6089 7abd
000000f0: 9e3a 8cbc 1560 45bd 8434 333d 6f8c 55b9

classifier.2.weight f4 [10, 64]
0.0018359327 -0.11704942 0.28359315 -0.37209743 0.41690674 -0.22861513 0.13197607 0.22026303
0.38585445 0.1840038 -0.055007443 -0.2902664 0.26979154 -0.05705177 -0.24422638 0.046937294
0.039822683 -0.35398594 -0.2743422 -0.122078784 -0.11476386 0.0742134 0.07055266 0.08234923
-0.42090657 0.28060666 0.102776825 -0.04327067 -0.35626686 0.23543906 0.3182876 -0.1558571
0.17204821 -0.13092722 0.044360198 0.1678254 0.2823551 -0.14299643 -0.047473706 -0.04459406
0.3082725 0.25913084 0.15769015 -0.11064675 -0.13110863 -0.0503162 0.18440703 0.15011796
0.0917108 -0.10394845 0.15550067 0.13641377 0.015439435 -0.29267323 0.06907578 0.0074279616
0.01247072 0.109991245 -0.22382452 -0.21132043 0.0763675 -0.10448041 0.16629672 -0.056185395
-0.14652416 -0.1121696 -0.015197007 -0.27550077 -0.027817674 -0.1572802 0.35668537 -0.23755841
0.42035806 0.20050159 0.06126821 -0.20847222 -0.03690642 -0.02383171 0.35339674 -0.15462159
-0.05132401 0.16754551 0.43119866 0.04286576 -0.09115693 0.12192514 0.31743607 0.14179559
-0.026701093 -0.216593 -0.07891698 -0.12226365 0.054472283 -0.033396207 -0.2203342 0.019625684
-0.0420569 -0.04098563 0.08538058 -0.1898995 0.23869036 0.09055997 -0.087689795 -0.3866106
0.16717218 -0.25456703 -0.236218 -0.24679933 -0.049056184 -0.22181629 -0.2780595 -0.20545344
-0.1659181 -0.10470827 0.0021925336 0.12455809 0.30986196 -0.13669717 -0.35922208 0.116643056
-0.19796748 0.28582066 -0.198522 0.3800764 0.10676827 0.028605321 -0.09682056 0.33753845
0.04491878 0.50100124 0.23514023 0.28526476 -0.3475482 0.14738557 -0.13014585 0.040306546
-0.07693496 0.38143593 0.06360953 -0.20010474 -0.058236685 0.2853203 -0.29835525 -0.1944414
-0.3034876 -0.025813028 0.21663682 -0.072435126 -0.059597366 0.11741071 0.14296755 -0.04891235
-0.09676027 0.30288908 -0.18304919 -0.18779461 0.1145069 0.09945128 -0.1435824 0.09451835
-0.113170564 0.2984062 0.20716837 0.24948682 -0.09597019 0.13444035 0.43965933 -0.113334745
0.015450291 -0.18106152 0.06900841 0.28929988 0.16732332 0.08949405 0.22695382 0.13908131
0.4041467 -0.05092755 0.25175506 -0.31028655 0.32101735 -0.16490735 0.080313995 0.07425089
0.24425359 -0.34924126 -0.26686278 -0.28961396 -0.22358488 -0.2392574 -0.123354115 -0.19496006
0.13815147 -0.15460958 -0.056908067 0.26562372 -0.1742597 -0.23692106 -0.2844148 -0.03225492
-0.10399685 0.0010762474 0.10826616 0.20988874 -0.13260944 0.09748823 0.043706045 0.22340462
-0.14638375 0.08767629 -0.040206973 0.012784069 0.17112406 0.1029201 -0.4263675 0.072570235
0.022943309 -0.18491854 -0.21004352 0.4363898 -0.16017179 0.1164761 0.04094064 0.32176945
-0.011867912 -0.21942532 0.030374963 -0.07956238 0.075591624 0.15926735 0.02647651 -0.15830964
-0.05761015 -0.014377267 -0.16603495 -0.27555832 -0.13683306 0.001084324 -0.06443101 0.25138512
-0.13372082 0.12205247 -0.05214395 0.23508191 0.03490621 0.16157098 0.30395618 0.14256254
0.16600788 -0.10928826 0.017328816 0.12661785 -0.083534755 0.058468148 0.19662474 0.2000012
00000000: aea3 f03a 9bb7 efbd 1f33 913e 8e83 bebe
00000010: cd74 d53e 161a 6abe bc24 073e a28c 613e
00000020: b78e c53e 7e6b 3c3e 7c4f 61bd cc9d 94be
00000030: 1e22 8a3e 1eaf 69bd 7b16 7abe 5241 403d
00000040: 1c1d 233d a53d b5be 9576 8cbe 7104 fabd
00000050: 5109 ebbd 32fd 973d ea7d 903d b7a6 a83d
00000060: 1181 d7be adab 8f3e a87c d23d 963c 31bd
00000070: 9c68 b6be f016 713e 98f6 a23e 0199 1fbe
00000080: 682d 303e c911 06be 0ab3 353d 6cda 2b3e
00000090: d990 903e a86d 12be ca73 42bd 43a8 36bd
000000a0: e5d5 9d3e ccac 843e 8779 213e c39a e2bd
000000b0: 5741 06be 5c18 4ebd 32d5 3c3e 86b8 193e
000000c0: dfd2 bb3d ede2 d4bd 913b 1f3e 0db0 0b3e
000000d0: aff5 7c3c 44d9 95be 9a77 8d3d 4266 f33b
000000e0: fe51 4c3c 1743 e13d 4132 65be 6264 58be
000000f0: 9066 9c3d d3f9 d5bd b049 2a3e a822 66bd
00000100: 6e0a 16be 2db9 e5bd defc 78bc 700e 8dbe
00000110: e4e1 e3bc 100e 21be 779f b63e 8342 73be
00000120: 2c39 d73e 4a50 4d3e 60f4 7a3d be79 55be
00000130: 302b 17bd b83a c3bc 6bf0 b43e 1f55 1ebe
00000140: 2039 52bd 0d91 2b3e 12c6 dc3e 0294 2f3d
00000150: 7cb0 babd e3b3 f93d fb86 a23e dd32 113e
00000160: 40bc dabc 8eca 5dbe 3a9f a1bd 5d65 fabd
00000170: 541e 5f3d 76ca 08bd 4a9f 61be 0bc6 a03c
00000180: db43 2cbd 8ce0 27bd 03dc ae3d 0475 42be
00000190: 3f6b 743e 8177 b93d b596 b3bd d3f1 c5be
000001a0: 2f2f 2b3e 9c56 82be 22e3 71be f7b8 7cbe
000001b0: 23ef 48bd cf23 63be d15d 8ebe 6362 52be
000001c0: 6fe6 29be 4a71 d6bd 9cb0 0f3b 5018 ff3d
000001d0: 3aa6 9e3e 58fa 0bbe f5eb b7be 8ee2 ee3d
000001e0: fdb7 4abe 1657 923e 5a49 4bbe 6099 c23e
000001f0: 53a9 da3d b555 ea3c dc49 c6bd d7d1 ac3e
00000200: c1fc 373d 9e41 003f 9ac8 703e 390e 923e
00000210: d6f1 b1be 3eec 163e f444 05be 7a18 253d
00000220: 1490 9dbd 924b c33e b745 823d 42e8 4cbe
00000230: 9789 6ebd 8115 923e 05c2 98be a51b 47be
00000240: ba62 9bbe d875 d3bc 0bd6 5d3e de58 94bd
00000250: 5e1c 74bd 0775 f03d 1666 123e 5158 48bd
00000260: 402a c6bd 4714 9b3e 3f71 3bbe 3b4d 40be
00000270: 9882 ea3d 1dad cb3d 4407 13be d692 c13d
00000280: f8c5 e7bd b3c8 983e f223 543e 7979 7f3e
00000290: 058c c4bd bbaa 093e 071b e13e 0c1c e8bd
000002a0: 3823 7d3c 3168 39be 4854 8d3d 1d1f 943e
000002b0: ce56 2b3e a848 b73d 9566 683e 556b 0e3e
000002c0: 51ec ce3e 6899 50bd 0ae6 803e e1dd 9ebe
000002d0: 635c a43e 79dd 28be aa7b a43d da10 983d
000002e0: 9d1d 7a3e c0cf b2be 3da2 88be 4848 94be
000002f0: 6ff3 64be e4ff 74be 15a1 fcbd 9ca3 47be
00000300: 9477 0d3e f951 1ebe 6f18 69bd d5ff 873e
00000310: 2371 32be 6f9b 72be d19e 91be bc1d 04bd
00000320: 4dfc d4bd df10 8d3a a6ba dd3d 13ed 563e
00000330: c5ca 07be e9a7 c73d 1c05 333d 2ec4 643e
00000340: 9fe5 15be a08f b33d 11b0 24bd 4674 513c
00000350: 253b 2f3e c6c7 d23d d74c dabe b49f 943d
00000360: 9bf3 bb3c 495b 3dbe a615 57be 7c6e df3e
00000370: 1304 24be 068b ee3d 5fb1 273d f7be a43e
00000380: a171 42bc 08b1 60be ead4 f83c 9af1 a2bd
00000390: c8cf 9a3d fb16 233e 44e5 d83c ec1b 22be
000003a0: 9ff8 6bbd a18e 6bbc 1105 2abe fb15 8dbe
000003b0: f71d 0cbe e01f 8e3a 68f4 83bd 8db5 803e
000003c0: 1cee 08be a5f6 f93d e594 55bd 50b9 703e
000003d0: d0f9 0e3d dd72 253e 25a0 9b3e eafb 113e
000003e0: f8fd 293e 86d2 dfbd 29f5 8d3c 1ca8 013e
000003f0: 4514 abbd 4c7c 6f3d ff57 493e 1dcd 4c3e

classifier.2.bias f4 [10]
-0.16712514 -0.65764767 0.057753365 0.22404535 0.5361244 -0.08247689 0.17959109 -0.22155367
0.26128253 -0.26332396
00000000: da22 2bbe 995b 28bf cb8e 6c3d 256c 653e
00000010: 733f 093f a5e9 a8bd bae6 373e f7de 62be
00000020: d3c6 853e 66d2 86be
