ov3/assignment3/checkpoints/best.ckpt (torch, 918864 bytes, 22 tensors)

feature_extractor.0.weight f4 [32, 3, 5, 5]
0	0x3d97c5dd	0.07410786
1	0x3d9c40ae	0.07629524
2	0xbd8a5960	-0.06755328
3	0xbdd07725	-0.10178975
4	0xbdbd0532	-0.092295066
5	0x3da4f704	0.08054927
6	0xbd9f586f	-0.07780539
7	0xbce7d0bf	-0.02829778
8	0xbdfea464	-0.12433699
9	0xbd3608d3	-0.04444201
10	0xbd90f1f6	-0.070774004
11	0xbe1c922c	-0.15290135
12	0xbe83bcfe	-0.25730127
13	0xbe2e1e4f	-0.1700375
14	0xbd80b97a	-0.06285377
15	0xbcb58b17	-0.02216105
16	0xbc4a59d0	-0.0123505145
17	0x3ce79adb	0.028272083
18	0xbd0c4154	-0.03424199
19	0x3d1e773a	0.038687922
20	0x3e0b0c3f	0.1357889
21	0x3e14a3d6	0.14515623
22	0x3d2e7998	0.04259643
23	0x3e390b5a	0.18070737
24	0x3dc04e57	0.09389942
25	0x3d84712c	0.06466898
26	0x3de020ed	0.1094378
27	0xbd8fab03	-0.0701504
28	0xbd97ddac	-0.074153274
29	0xbdab5846	-0.08366446
30	0xbbf1f1d1	-0.007383563
31	0x3d1403e7	0.036136534
32	0xbe1d275b	-0.15347044
33	0xbdf5fd60	-0.12011218
34	0xbe146183	-0.14490323
35	0xbe1efd0e	-0.1552622
36	0xbe3de50c	-0.18544406
37	0xbc269e7b	-0.010169621
38	0xbc141c43	-0.009039941
39	0x3d20ddea	0.039274134
40	0xbd806be9	-0.06270582
41	0xbe0eea37	-0.13956533
42	0xbcf6b518	-0.03011565
43	0xbda9c04d	-0.082886316
44	0xbd28cf3c	-0.04121326
45	0xbd5b4d21	-0.053540353
46	0x3d57ed2b	0.052716415
47	0x3d90827f	0.0705614
48	0xbd032f31	-0.032027427
49	0x3c96e811	0.018421205
50	0x3da25673	0.07926645
51	0x3df37a9b	0.118886195
52	0x3df8ea6d	0.12154088
53	0x3d84951c	0.06473753
54	0x3d67f3c4	0.056628957
55	0xbcebeb22	-0.028798643
56	0x3bd3fc62	0.0064692954
57	0xbdb7afd6	-0.08969085
58	0xbd8d01ad	-0.06885085
59	0xbd74bb0f	-0.059748705
60	0x3d35d2f5	0.044390637
61	0x3a0716ea	0.0005153256
62	0xbdb600d8	-0.0888688
63	0x3d701fdb	0.05862413
64	0x3df3fbc4	0.11913255
65	0xbd2bc977	-0.04194018
66	0xbc6ef76e	-0.014585359
67	0x3d4655a1	0.048421506
68	0x3e26bc58	0.16282785
69	0x3e534d92	0.2063506
70	0xbda545bc	-0.080699414
71	0xbd2d49b1	-0.042306606
72	0x3da0a9dd	0.07844899
73	0x3e13e946	0.14444456
74	0x3e0b74c1	0.13618757
75	0x3e296b2e	0.16544792
76	0x3e1ab180	0.15106773
77	0xbd8449f2	-0.064594164
78	0xbdaf446a	-0.08557971
79	0xbc857d65	-0.016295144
80	0x3b1bcb79	0.0023772402
81	0xbdbad139	-0.09121937
82	0xbe75d575	-0.24007209
83	0xbe0f6fff	-0.14007567
84	0x3e77c249	0.24195208
85	0xbe04b131	-0.12958218
86	0xbea08985	-0.3135492
87	0xbd22af78	-0.03971812
88	0x3ecd80d9	0.40137365
89	0x3d9ab319	0.075536914
90	0xbd61e862	-0.05515326
91	0x3daa44ed	0.08313928
92	0x3ea87e81	0.32909015
93	0x3de32c42	0.11092426
94	0xbea41151	-0.3204446
95	0xbcbfaa0c	-0.023396514
96	0x3e07bf96	0.13256678
97	0x3cf4913c	0.02985441
98	0xbe5a1d2d	-0.21300192
99	0xbca7d267	-0.02048607
100	0x3e60fff1	0.21972634
101	0x3e7381f3	0.2378004
102	0xbcb661ab	-0.022263369
103	0xbe30f718	-0.17281759
104	0xbddfab17	-0.10921305
105	0x3e1b2302	0.15150073
106	0xbe6c91cf	-0.23102497
107	0xbecd387a	-0.4008215
108	0xbd9762e7	-0.07391911
109	0x3e3b6ccc	0.18303221
110	0xbdef16d6	-0.116742775
111	0xbe37d852	-0.17953613
112	0xbd571f92	-0.052520342
113	0x3ed40405	0.41409317
114	0x3e276ca9	0.16350044
115	0xbe1d2fc0	-0.15350246
116	0x3ce8fb10	0.028440028
117	0x3e7a26cf	0.24428867
118	0x3d3e1df3	0.04641528
119	0xbe592986	-0.21207246
120	0x3db75a6f	0.08952796
121	0x3d700be4	0.05860509
122	0xbda9f9a5	-0.08299569
123	0xbde4bb3f	-0.11168527
124	0xbdde8a6d	-0.10866246
125	0xbc658dcd	-0.014010859
126	0x3deaf26a	0.11472018
127	0xbc76bd6a	-0.015059808
128	0xbe25320c	-0.16132373
129	0xbdbbc9bc	-0.09169337
130	0x3dc32662	0.09528805
131	0xbdef8f09	-0.11697204
132	0xbeb9e2cf	-0.36305854
133	0xbd9891e7	-0.07449704
134	0x3e5eb13f	0.21747302
135	0xbdfbdbbf	-0.122977726
136	0xbe85a6a1	-0.2610369
137	0x3c7b1586	0.015324956
138	0x3ead9336	0.33901376
139	0x3e351ffb	0.17687981
140	0x3c9c7227	0.0190974
141	0x3deffdbb	0.11718317
142	0x3ebded5f	0.37095162
143	0x3dc1e4dd	0.0946748
144	0xbe7d8530	-0.24757838
145	0xbce77b4a	-0.028257031
146	0x3e0bcd47	0.13652526
147	0x3c86f243	0.016472941
148	0xbe004a3f	-0.12528323
149	0x3ca2d608	0.019877449
150	0xbded8667	-0.11597901
151	0xbe0a2b74	-0.13493139
152	0x3d236611	0.03989226
153	0x3e849706	0.25896472
154	0x3e768ed2	0.24077919
155	0xbdadd4a1	-0.08487821
156	0xbcb703d3	-0.02234069
157	0xbe7c0e0c	-0.24614733
158	0x3d3090fd	0.04310702
159	0x3e3eecbe	0.18644997
160	0x3d28b1b2	0.04118509
161	0x3cb33c69	0.021879392
162	0xbe5de3f7	-0.21668993
163	0xbe592b8f	-0.21208023
164	0x3e222ca0	0.15837336
165	0x3be52eb7	0.0069940942
166	0x3dcae47a	0.0990686
167	0x3dbc3612	0.091900006
168	0xbe98f554	-0.2987467
169	0xbcc81fd4	-0.02442924
170	0x3ccc7420	0.024957716
171	0xbc881f5b	-0.016616514
172	0x3e39dffd	0.18151851
173	0x3d535782	0.051597126
174	0xbdff6da6	-0.12472086
175	0x3cbfe5ca	0.023425002
176	0xbde5ee6c	-0.11227116
177	0xbdd752d7	-0.10513847
178	0x3e19715f	0.14984654
179	0xbd2b9be6	-0.041896723
180	0x3d1a819d	0.037721265
181	0xbdee3452	-0.11631073
182	0xbe063df7	-0.13109575
183	0x38aa3c63	8.1174796e-05
184	0x3e2e3552	0.17012528
185	0x3df1f9ab	0.118151985
186	0x3d289a74	0.041162923
187	0xbe1c2122	-0.15247014
188	0xbe846eb8	-0.25865722
189	0x3e21efb1	0.15814091
190	0x3dfd3afe	0.123647675
191	0x3e86f115	0.26355806
192	0xbc4645b1	-0.012101577
193	0xbe45a777	-0.19302164
194	0xbe0a68f3	-0.13516597
195	0xbde05a2e	-0.109547004
196	0xbcb08f83	-0.021552807
197	0x3e0115b9	0.12605943
198	0xbd73a770	-0.059485853
199	0xbd546779	-0.05185649
200	0xbc211f68	-0.009834148
201	0x3cf9def7	0.030501826
202	0xbdbc1cd7	-0.09185188
203	0xbc820e8e	-0.01587608
204	0xbd7085db	-0.058721405
205	0x3dec4e05	0.115383185
206	0xbdd2c698	-0.10291785
207	0xbd9f1513	-0.077676915
208	0x3bd2128c	0.0064109024
209	0x3d74e0af	0.059784587
210	0x3dad8d3e	0.084742054
211	0x3d8d197f	0.068896286
212	0xbda687aa	-0.081313446
213	0xbe2ba07c	-0.16760439
214	0x3d629caa	0.055325188
215	0x3d4fc92c	0.05072896
216	0x3ddf06ab	0.10889944
217	0x3d5648f7	0.05231568
218	0xbd640336	-0.055667125
219	0xbe186dd2	-0.14885643
220	0xbd6f0247	-0.05835178
221	0x3e33ed6d	0.1757104
222	0x3e2d7b0e	0.16941473
223	0x3d661e2e	0.056181125
224	0xbe0a0318	-0.13477743
225	0x3dba93af	0.091102
226	0xbd099a1b	-0.033594232
227	0x3d053387	0.032519843
228	0x3cd6bbf2	0.026212666
229	0x3d0f3404	0.034961715
230	0xbc4ed300	-0.0126235485
231	0x3e2249c4	0.15848452
232	0x3deec7c5	0.11659197
233	0x3e5869e7	0.21134149
234	0x3e3b9a4a	0.18320575
235	0xbe091706	-0.13387689
236	0x3d82701d	0.0636904
237	0xbc2ccef1	-0.010547386
238	0x3d4d26b4	0.05008574
239	0x3e0981a5	0.13428362
240	0xba5add65	-0.00083490304
241	0x3d9057a7	0.07047968
242	0x3b23fcee	0.0025022584
243	0x3d99c5bb	0.07508417
244	0x3e0cc0cc	0.13745421
245	0xbe176dc5	-0.14787968
246	0x3d3bfb7f	0.045894142
247	0xbdbee68a	-0.093213156
248	0x3bd539bf	0.006507128
249	0x3bd94293	0.0066302507
250	0xbe27235f	-0.16322087
251	0xbd9d7229	-0.0768779
252	0x3d242629	0.040075455
253	0xbd80ec0c	-0.06295022
254	0xbdba96b8	-0.091107786
255	0xbe544005	-0.20727547

feature_extractor.0.bias f4 [32]
0	0xbb99aaa4	-0.0046895314
1	0xbdd6b23d	-0.10483215
2	0xbe66826f	-0.22510694
3	0x3cc38203	0.023865705
4	0xbd49aae1	-0.04923523
5	0xbd0fc717	-0.035101976
6	0xbe52a9ed	-0.20572634
7	0xbdfef441	-0.124489315
8	0xbe0fadee	-0.14031193
9	0xbd7ea125	-0.0621654
10	0xbe13addd	-0.14421792
11	0x3d5434a8	0.05180803
12	0xbda24068	-0.07922441
13	0xbdddf1f7	-0.10837167
14	0x3c8f2362	0.017472927
15	0xbd39c203	-0.04535104
16	0xbd701952	-0.058617897
17	0xbddce705	-0.10786251
18	0xbe2a71b3	-0.16644935
19	0x3e1475ce	0.14498064
20	0x3b30525f	0.0026904566
21	0xbe66d2bc	-0.22541326
22	0xbe023bf9	-0.1271819
23	0xbd1932af	-0.03740185
24	0xbcbaadef	-0.022788016
25	0xbdd0cd49	-0.10195405
26	0xbe8988ca	-0.26862174
27	0x3df82abc	0.12117526
28	0xbd8ec112	-0.06970419
29	0xbd2e805d	-0.042602886
30	0x3d234fdb	0.039871078
31	0x3cea697c	0.028614752

feature_extractor.2.weight f4 [32]
0	0x3f7118fa	0.94178736
1	0x3f90959d	1.1295658
2	0x3f805cb1	1.0028287
3	0x3f840f06	1.0317085
4	0x3f7d0759	0.98839337
5	0x3f6b9bd2	0.9203464
6	0x3f67b032	0.9050323
7	0x3f8387fd	1.0275875
8	0x3f86ddb2	1.0536406
9	0x3f7f4905	0.99720794
10	0x3f69d1e1	0.91335875
11	0x3f7ba9ed	0.9830616
12	0x3fa06dfb	1.2533563
13	0x3f97cd47	1.1859521
14	0x3f5645d1	0.8370028
15	0x3f85886d	1.0432259
16	0x3f8734e7	1.056302
17	0x3f7f54bf	0.9973869
18	0x3f8487b0	1.0353909
19	0x3f5ffd9d	0.8749636
20	0x3f5c674d	0.86095124
21	0x3f80ad27	1.0052842
22	0x3f8be4d5	1.0929209
23	0x3f618b07	0.88102764
24	0x3f69c7d4	0.9132054
25	0x3f824fdb	1.018062
26	0x3f66f43f	0.9021644
27	0x3f68cc97	0.9093718
28	0x3f773046	0.96558034
29	0x3f89dbc6	1.0770195
30	0x3f808419	1.0040313
31	0x3f81be9e	1.0136297

feature_extractor.2.bias f4 [32]
0	0xbdff0b4f	-0.12453329
1	0xbdafb166	-0.08578758
2	0xbda23868	-0.07920915
3	0x3c01656f	0.007897719
4	0x3bf9290e	0.007603771
5	0x3dc6ecbc	0.09713122
6	0x3dec9dca	0.115535334
7	0x3c6a7dd8	0.01431223
8	0xbc381e49	-0.011237689
9	0xbafe875c	-0.0019419002
10	0x3d71bd04	0.05901815
11	0x3d4e12ad	0.05031078
12	0x3da9209b	0.08258172
13	0x3d994796	0.07484357
14	0x3af75072	0.0018868579
15	0x3b9892a8	0.0046561547
16	0x3d71c664	0.05902709
17	0xbc6ce329	-0.014458456
18	0x3d8382e6	0.06421451
19	0x3da598ef	0.080858104
20	0x3da49148	0.08035523
21	0x3c3f6428	0.011681594
22	0xbc89155e	-0.016733821
23	0x3dafc89a	0.085831836
24	0x3e01486c	0.12625283
25	0xbd721214	-0.059099272
26	0xbcdf7bdb	-0.027280739
27	0x3da5ec20	0.08101678
28	0x3ce5cc41	0.028051497
29	0xbce5d6b1	-0.028056474
30	0x3d4a84a6	0.04944291
31	0xba9a4daf	-0.0011772419

feature_extractor.2.running_mean f4 [32]
0	0x3ec37419	0.38174513
1	0x3e7467ea	0.23867765
2	0x3e4ca56e	0.19984981
3	0x3ee2f504	0.44327557
4	0x3e64be7e	0.22338292
5	0x3edd6157	0.43238327
6	0x3e982371	0.2971454
7	0x3e09beba	0.13451663
8	0x3e40e419	0.18837012
9	0x3ebd2d9c	0.3694886
10	0x3e305d95	0.17223199
11	0x3e612a3b	0.21988766
12	0x3e92fece	0.28710026
13	0x3e68b4ce	0.22725222
14	0x3f1fa4a1	0.6236058
15	0x3e9d3715	0.30706087
16	0x3e86a93a	0.26300985
17	0x3e448987	0.19193088
18	0x3e97006a	0.29492503
19	0x3eab42d9	0.33449438
20	0x3ec039b4	0.37544024
21	0x3e0d3907	0.13791285
22	0x3ece15d0	0.40251017
23	0x3ea7a410	0.32742357
24	0x3e9063a7	0.2820103
25	0x3e6654a2	0.22493222
26	0x3eb9b0e9	0.36267784
27	0x3eaf0f28	0.3419125
28	0x3ed38265	0.4131042
29	0x3ee4510e	0.4459309
30	0x3e87c7eb	0.26519713
31	0x3e631735	0.22176822

feature_extractor.2.running_var f4 [32]
0	0x3ec0e141	0.37671855
1	0x3e89ca05	0.2691194
2	0x3e47a300	0.19495773
3	0x3ef5e2ae	0.48024505
4	0x3e25392b	0.16135089
5	0x3eac5dbb	0.3366526
6	0x3e93b770	0.2885089
7	0x3dd17d32	0.10228957
8	0x3e2d8432	0.1694496
9	0x3eaef87b	0.3417395
10	0x3e1010c1	0.14068891
11	0x3e154e75	0.1458071
12	0x3ec840e4	0.39112008
13	0x3e84bf22	0.25927073
14	0x3ef8a2ea	0.48561794
15	0x3eb12356	0.34597272
16	0x3e9b5efa	0.303459
17	0x3e0d396e	0.13791439
18	0x3ec9f16b	0.39442
19	0x3eb1a7d3	0.34698352
20	0x3e823a93	0.25435314
21	0x3dd2fe2a	0.10302384
22	0x3f2135ab	0.62972516
23	0x3ea6bd65	0.32566372
24	0x3e96cfac	0.29455316
25	0x3e59d373	0.21272068
26	0x3ea545cd	0.32279816
27	0x3e5a6ff9	0.21331777
28	0x3f10719d	0.5642336
29	0x3f44624b	0.76712483
30	0x3e5f3233	0.21796493
31	0x3e13b7df	0.1442561

feature_extractor.5.weight f4 [64, 32, 3, 3]
0	0x3ca7ba1c	0.020474486
1	0x3ca7c539	0.020479785
2	0x3c740464	0.014893625
3	0x3ddb18ac	0.10698065
4	0x3dd17d87	0.102290206
5	0x3ccbe96f	0.024891583
6	0x3c007689	0.007840761
7	0x3cf97f0a	0.030456085
8	0x3d130d1a	0.035901166
9	0xbd197cce	-0.03747254
10	0xbd007b12	-0.03136737
11	0xbd32a679	-0.043615792
12	0xbd436afe	-0.047709458
13	0x3ce299fe	0.02766132
14	0xbc9263b4	-0.017869808
15	0x3d532cf4	0.051556543
16	0x3c85ce7a	0.016333807
17	0x3d2c5879	0.04207656
18	0xbbfcf295	-0.0077193477
19	0x3d56333c	0.052294955
20	0x3a9a0cfc	0.0011753137
21	0xbb81dad8	-0.003962856
22	0x3da76ac4	0.08174661
23	0x3db38bf0	0.08766925
24	0xbd2aed84	-0.04173042
25	0xbd12c563	-0.035832774
26	0x3e0ba4b9	0.13637055
27	0x3b7f77cd	0.003898132
28	0x3d19df5b	0.037566524
29	0x3d190325	0.037356514
30	0x3c71027f	0.014710068
31	0xbd47bf52	-0.04876644
32	0x3cd45d22	0.025923315
33	0xbbc54aaa	-0.0060208635
34	0x3c03cbb1	0.008044169
35	0x3b83279e	0.0040025255
36	0xbd9c1da8	-0.07622844
37	0x3c6ae93e	0.014337836
38	0x3da2ef08	0.07955748
39	0xbdb9c64d	-0.09071026
40	0xbdc43587	-0.09580522
41	0x3ba1cfd6	0.004938106
42	0x3c9319f9	0.01795672
43	0xbd0a0da7	-0.033704426
44	0x3d657f27	0.056029465
45	0xbd95fa26	-0.07323103
46	0xbdbc87f0	-0.092056155
47	0x3c64c4e5	0.013962959
48	0xbd8ffc03	-0.07030489
49	0xbd87c005	-0.06628422
50	0xbcc922e8	-0.024552777
51	0x3ada51b3	0.0016656428
52	0xbdae2c32	-0.08504523
53	0xbdb8ebda	-0.0902936
54	0x3c07d215	0.008289834
55	0xbce14cd6	-0.027502459
56	0xbd43ef43	-0.0478356
57	0x3b1ac398	0.0023615118
58	0xbd0c3df1	-0.03423876
59	0x3b120d17	0.0022285634
60	0x3d4346be	0.047674887
61	0x3d987f79	0.074461885
62	0xbd57473d	-0.052558172
63	0xbd292662	-0.04129637
64	0xbba254d2	-0.004953959
65	0x3cd3150b	0.02576687
66	0xbd66cd52	-0.056348152
67	0xbc1d4019	-0.009597802
68	0xbac7c891	-0.0015242269
69	0x3b96bdb5	0.0046002516
70	0xbd1750a8	-0.036942154
71	0x3b791ad0	0.0038010366
72	0xbde94421	-0.11389948
73	0xbe01f010	-0.12689233
74	0xbd9443ba	-0.0723948
75	0x3d001906	0.031273864
76	0xbcd2a820	-0.025714934
77	0x3d07830c	0.03308396
78	0x397bc26c	0.00024009653
79	0x3dc11f76	0.09429829
80	0x3db55768	0.08854562
81	0xbcd7471c	-0.026279025
82	0xbda7fcdb	-0.08202525
83	0xbc02a079	-0.00797283
84	0xbd34442a	-0.04401032
85	0xbdbbe1c4	-0.09173921
86	0xbc619730	-0.013768956
87	0xbd2fa74c	-0.042884156
88	0xbcddfcba	-0.027098048
89	0x3c96497c	0.018345587
90	0xbda8c6f2	-0.08241071
91	0xbd3eabe8	-0.04655066
92	0x3d9a7089	0.07540996
93	0xbd9fd6b1	-0.07804621
94	0x3c21c203	0.009872916
95	0xbd1b89c7	-0.03797319
96	0xbbf57b8d	-0.007491535
97	0x3c8f8770	0.017520636
98	0x3c14f296	0.00909104
99	0xbdf9840e	-0.121833906
100	0xbd5de43c	-0.05417274
101	0xbd83b5de	-0.06431173
102	0x3cbe571a	0.023234893
103	0xbd91da05	-0.07121662
104	0xbd864dc4	-0.06557801
105	0x3d173e7c	0.036924824
106	0x3d4de649	0.050268445
107	0x3c6fa5fc	0.014626976
108	0xbd9505b4	-0.072764784
109	0xbdcf2525	-0.10114507
110	0xbcb69733	-0.022288894
111	0xbd26ae17	-0.04069337
112	0xbde6efe6	-0.11276226
113	0xbd1f3786	-0.03887131
114	0x3c888295	0.016663829
115	0xbc0a816b	-0.008453707
116	0xbd0b72f9	-0.034045193
117	0xbd5fc571	-0.054631654
118	0xbd27c930	-0.04096335
119	0x3c9d2b7b	0.019185772
120	0xbdb912c0	-0.090367794
121	0xbbadea05	-0.0053074383
122	0x3aeee399	0.0018225788
123	0xbd109a97	-0.03530368
124	0xbd1736ef	-0.036917623
125	0xbcadc114	-0.02121023
126	0xbca50615	-0.020144502
127	0xbd56c600	-0.05243492
128	0xbd5b3c87	-0.05352452
129	0xbd7ba612	-0.061437674
130	0xbbfa7342	-0.0076431343
131	0xbd04951a	-0.032368757
132	0x39c00cc6	0.0003663061
133	0x3b95ac12	0.0045676315
134	0xbd01c605	-0.031682987
135	0xbd1bd504	-0.038044944
136	0x3d43343a	0.04765723
137	0x3c2ca5c3	0.010537568
138	0xbce4ee2f	-0.027945606
139	0xbc1177b2	-0.008878635
140	0x3d0c76db	0.034293037
141	0x3d029c95	0.03188761
142	0x3c8d242f	0.017229168
143	0x3d01b87d	0.031670082
144	0xbdb6fc81	-0.0893488
145	0xbcea63df	-0.028612075
146	0x3b9a9c80	0.0047183633
147	0xbd5bdf81	-0.053679947
148	0xbd87cf4c	-0.066313356
149	0xbc98c557	-0.018648786
150	0xbd2342d7	-0.039858665
151	0x3ccaeda5	0.02477152
152	0xbac5924a	-0.0015073505
153	0x3ce8df37	0.02842675
154	0x3d3db824	0.04631819
155	0x3ce44e50	0.027869374
156	0xbd86a466	-0.06574325
157	0x3c790555	0.015199025
158	0x3d465b36	0.04842683
159	0x399054ee	0.00027529098
160	0xbcbed621	-0.023295464
161	0xbc8a75c3	-0.016901856
162	0xbe05ce44	-0.13066965
163	0xbc4ffba9	-0.012694278
164	0x3d019384	0.031634822
165	0x3d20fac6	0.039301656
166	0x3b2ced3e	0.0026386525
167	0xbc0f984a	-0.008764336
168	0x3da9383d	0.0826268
169	0xbbbb61e2	-0.0057184556
170	0xbcd21f2c	-0.02564963
171	0xbd645268	-0.05574265
172	0x3c1d2fce	0.009593917
173	0xbb01935d	-0.0019771673
174	0xbc575549	-0.013142892
175	0xbccab6e3	-0.02474541
176	0x3cbe463c	0.02322685
177	0xbd97ee10	-0.07418454
178	0xbd102265	-0.03518905
179	0x3c10426c	0.008804899
180	0xbd415ee5	-0.04720964
181	0xbbe1d027	-0.006891269
182	0xbd7abf0d	-0.061217356
183	0xbd3bb9f7	-0.045831647
184	0xbc52d84c	-0.012868952
185	0xbd75c78d	-0.06000476
186	0x3d01eb7a	0.03171871
187	0x3d3b8fd2	0.045791455
188	0xbd6e9fa5	-0.058257718
189	0xbd28449e	-0.041081063
190	0xbc164fa6	-0.009174263
191	0xbb277baa	-0.0025555887
192	0xbc6add93	-0.014335054
193	0xbd41177c	-0.047141537
194	0x3d33a0a3	0.043854367
195	0xbd101ae4	-0.035181895
196	0x3ce9b9c8	0.02853097
197	0x3d3319eb	0.04372589
198	0x3c314e59	0.010821902
199	0xbca9367b	-0.020655861
200	0xbd83c118	-0.06433314
201	0x3d678242	0.056520708
202	0x3d5ee1a9	0.054414425
203	0x3dc89980	0.09794903
204	0x3d1ce74a	0.038306512
205	0x3e0fd1b7	0.14044844
206	0x3d83ffb6	0.06445257
207	0xbcbe908e	-0.023262288
208	0x3c1f8dc5	0.00973839
209	0x3c842e89	0.016135471
210	0xbcfd4ea2	-0.030921284
211	0xbcc2c255	-0.023774305
212	0x3bdded56	0.0067726774
213	0x3d0285a4	0.03186573
214	0xbbc54cd2	-0.0060211206
215	0x3b64d739	0.0034918322
216	0xbc735e12	-0.014853971
217	0xbc597386	-0.013272172
218	0x3c47d67a	0.012197131
219	0xbb415b95	-0.002950405
220	0x3d18c06b	0.03729288
221	0xbd800601	-0.06251145
222	0x3c2a6f29	0.010402479
223	0x3c83c391	0.016084464
224	0xbc602550	-0.013680771
225	0xbd932c64	-0.07186201
226	0x39fb2ced	0.00047907923
227	0xbc8fb90d	-0.017544294
228	0x3c0e9118	0.008701585
229	0x3d8ab704	0.06773189
230	0x3dc09be1	0.094047315
231	0x3c317507	0.010831124
232	0x3d3a562d	0.04549234
233	0x3e1e5888	0.1546346
234	0x3cf06213	0.02934364
235	0x3cfcb8f7	0.030849917
236	0x3d2facef	0.04288953
237	0x3c9adeec	0.018905126
238	0x3d0ba51d	0.03409301
239	0xbaf494a5	-0.0018660022
240	0x3cb8efa6	0.02257521
241	0x3cf7cae4	0.030248113
242	0xbd653c1b	-0.055965524
243	0xbc4752ad	-0.012165708
244	0x3b4e3fdb	0.0031471166
245	0xbb72e7ac	-0.0037064357
246	0xbd7663af	-0.06015366
247	0x3b893a17	0.004187833
248	0xbdb4169d	-0.08793376
249	0xbcee8ee6	-0.029120874
250	0xbc69aa56	-0.014261803
251	0x3cedef3b	0.029044738
252	0xbd35a13d	-0.044343222
253	0x3c8e8c0d	0.017400766
254	0xbcf54439	-0.029939758
255	0xbc1a98e5	-0.009435867

feature_extractor.5.bias f4 [64]
0	0xbcf0f409	-0.02941324
1	0xbd2e0282	-0.04248286
2	0xbd3b118c	-0.04567103
3	0xbd925b1b	-0.07146283
4	0xbcc71c2e	-0.02430543
5	0xbe06abd2	-0.13151482
6	0xbcf0f459	-0.029413389
7	0x3d814ada	0.06313105
8	0xbcc290f6	-0.023750763
9	0xbcf25fc6	-0.029586684
10	0x3cfadeb3	0.03062377
11	0x3cf52b6d	0.029927934
12	0xbc9206a8	-0.01782544
13	0x3ce58386	0.028016817
14	0xbd666e5f	-0.0562576
15	0x3d0b31be	0.033982985
16	0xbda13760	-0.0787189
17	0xbc234c70	-0.009966955
18	0x3cd21a97	0.025647445
19	0xbd42f495	-0.047596533
20	0x3d27f511	0.041005198
21	0x3d230313	0.039797854
22	0xbca3c3a3	-0.019990748
23	0x3d06ae75	0.03288122
24	0xbd7baba0	-0.06144297
25	0xbbe90f24	-0.0071124006
26	0xbd6082a1	-0.054812077
27	0xbc08d955	-0.008352597
28	0x3d362c0a	0.044475593
29	0x3d622d6e	0.055219106
30	0xbd8b7778	-0.06809896
31	0xbdca45c6	-0.098765895
32	0xbd257cde	-0.040402286
33	0x3d3d4aa6	0.04621377
34	0xbc450bd3	-0.012026745
35	0x3cc3207b	0.023819199
36	0xbc074643	-0.008256498
37	0xbd8db523	-0.06919315
38	0x3d1da2f9	0.0384855
39	0xbd849a05	-0.064746894
40	0xbd330cb7	-0.043713298
41	0xbc84aedc	-0.01619666
42	0xbbf9c52a	-0.0076223807
43	0x3b905bb7	0.0044054645
44	0xbca77606	-0.02044202
45	0xbd5a562d	-0.05330484
46	0x3d67b738	0.056571215
47	0x3d92cc88	0.071679175
48	0xbe0bc58a	-0.13649574
49	0xbc69d580	-0.014272094
50	0xbdb8be10	-0.090206265
51	0xbc8acbfc	-0.01694297
52	0xbd5e9ad5	-0.054346878
53	0xbd9853be	-0.074378476
54	0xbd639423	-0.055561196
55	0x3d34f40f	0.044178065
56	0xbd4afd51	-0.049557988
57	0x3d0f8558	0.035039276
58	0x3c143a10	0.009047046
59	0xbc80029a	-0.01562624
60	0xbd572b15	-0.05253132
61	0xbd4fb23d	-0.05070709
62	0xbd1126a7	-0.035437252
63	0xbc60feea	-0.013732651

feature_extractor.7.weight f4 [64]
0	0x3f80cec6	1.0063102
1	0x3f7723bf	0.9653892
2	0x3f857c8d	1.0428635
3	0x3f7b142b	0.9807765
4	0x3f7208fe	0.9454497
5	0x3f856123	1.0420269
6	0x3f886b60	1.0657768
7	0x3f7b9d55	0.98286945
8	0x3f810367	1.0079163
9	0x3f88ba94	1.0681939
10	0x3f79ba6d	0.9755009
11	0x3f729cf4	0.9477074
12	0x3f70ce33	0.94064635
13	0x3f762822	0.9615499
14	0x3f7ae9fe	0.98013294
15	0x3f776a80	0.9664688
16	0x3f8474ad	1.0348107
17	0x3f7757e6	0.966185
18	0x3f811dff	1.0087279
19	0x3f8296ee	1.020231
20	0x3f800a74	1.000319
21	0x3f72b994	0.9481442
22	0x3f757dc3	0.9589502
23	0x3f886dd9	1.0658523
24	0x3f819a47	1.0125207
25	0x3f6de4ca	0.9292723
26	0x3f6f6b80	0.93523407
27	0x3f7da1df	0.9907512
28	0x3f841e7f	1.0321807
29	0x3f7aee8a	0.9802023
30	0x3f7f2696	0.9966825
31	0x3f82001a	1.0156281
32	0x3f7a5aaf	0.9779462
33	0x3f7ead05	0.99482757
34	0x3f7fcf7a	0.9992596
35	0x3f76def4	0.9643395
36	0x3f8000c5	1.0000235
37	0x3f81b442	1.0133135
38	0x3f806534	1.0030885
39	0x3f7e09f0	0.99233913
40	0x3f81cc2c	1.0140433
41	0x3f88b3df	1.0679892
42	0x3f71216f	0.9419164
43	0x3f7da87b	0.99085206
44	0x3f7e52b9	0.99344975
45	0x3f7a993d	0.97890073
46	0x3f71c499	0.9444061
47	0x3f829dcd	1.0204407
48	0x3f7b3497	0.9812712
49	0x3f86b63e	1.0524366
50	0x3f873dd4	1.0565743
51	0x3f7b108a	0.9807211
52	0x3f822ee1	1.0170556
53	0x3f79f201	0.97634894
54	0x3f7f6e75	0.9977792
55	0x3f7f60c3	0.9975702
56	0x3f7c8e09	0.9865423
57	0x3f7cfb9d	0.9882143
58	0x3f7fd0ff	0.9992828
59	0x3f95084a	1.1643155
60	0x3f8348ac	1.0256553
61	0x3f82c89d	1.0217472
62	0x3f80f8d1	1.0075933
63	0x3f82d490	1.0221119

feature_extractor.7.bias f4 [64]
0	0xbc29b885	-0.010358934
1	0xbbd6a2c1	-0.0065501635
2	0x3d10bb6c	0.03533499
3	0xbc08b625	-0.008344208
4	0xbd366da2	-0.044538148
5	0xbcf16cc5	-0.02947081
6	0x3d1d46b5	0.03839751
7	0x3b72664c	0.0036987243
8	0x3cf42831	0.029804321
9	0x3d0819f2	0.03322787
10	0xbbfc5618	-0.007700693
11	0x3c35d83e	0.011098919
12	0x3d867c5b	0.06566688
13	0x3d53dd38	0.051724643
14	0x3b97a3ee	0.0046276962
15	0x3965622b	0.00021875712
16	0xbc8faf93	-0.017539775
17	0x3d331a4b	0.043726247
18	0x3c15347e	0.009106753
19	0xbc221789	-0.0098933065
20	0xbc39ccc7	-0.011340327
21	0xbc818b34	-0.015813448
22	0x3c172902	0.009226086
23	0xbd54ba1d	-0.051935304
24	0x3b907222	0.004408137
25	0xbbc637a8	-0.006049115
26	0x3d107b93	0.0352741
27	0xbc5a058c	-0.013306987
28	0x3d89f116	0.067354366
29	0x3cdbaec4	0.026816733
30	0xbc9e27f0	-0.019306153
31	0xbcdeb11b	-0.02718406
32	0xbc27acd0	-0.010234073
33	0x3ce4c8a9	0.027927713
34	0xbcd6b13e	-0.026207563
35	0x3d2aa8cc	0.041664883
36	0x3c5c3aab	0.013441722
37	0x3c7490fb	0.014927144
38	0xbc7613b2	-0.015019344
39	0x3d16d10f	0.036820468
40	0xbd330ce1	-0.043713454
41	0x3c738fc4	0.014865819
42	0x3b9481f9	0.0045320955
43	0xbbf2a350	-0.0074047223
44	0xba3c4b51	-0.0007182854
45	0x3ab85958	0.0014064712
46	0x3bd9f743	0.0066517903
47	0x3dab24b7	0.08356612
48	0xbd26a6df	-0.040686484
49	0x3ba9958c	0.005175298
50	0xbd6818b1	-0.056664173
51	0x3c9e0f65	0.01929445
52	0x3d12b90c	0.035821006
53	0x3a8b1c61	0.0010613316
54	0xbd1c83ed	-0.03821175
55	0x3c1057f9	0.008810037
56	0xbcb2648c	-0.02177646
57	0x3d1c8283	0.038210403
58	0x3bdc6efb	0.006727097
59	0x3cf0d5fb	0.029398909
60	0x3cd15b1a	0.025556136
61	0xbc425d59	-0.011863076
62	0xbcbfaf01	-0.023398878
63	0x3d26cde0	0.04072368

feature_extractor.7.running_mean f4 [64]
0	0x3eb8ff71	0.36132386
1	0x3ee4e8c8	0.44708848
2	0x3ed7d4d9	0.42154577
3	0x3f0f1975	0.5589822
4	0x3f27c4eb	0.6553485
5	0x3e97b6f5	0.29631773
6	0x3eaa7eb7	0.332998
7	0x3f07c5c6	0.53036153
8	0x3e7c0b83	0.24613766
9	0x3ecdc126	0.40186423
10	0x3ea6576f	0.32488582
11	0x3f030ee7	0.51194614
12	0x3f30947c	0.6897657
13	0x3f147831	0.579959
14	0x3ede290c	0.4339069
15	0x3f535ccc	0.8256347
16	0x3ea65bdd	0.3249196
17	0x3f1acfa5	0.6047309
18	0x3ed300a6	0.41211432
19	0x3edfbe44	0.4369985
20	0x3f1e3cce	0.6181153
21	0x3fbe989e	1.4890325
22	0x3f3d9683	0.7405779
23	0x3ec0e002	0.37670904
24	0x3eca3202	0.39491278
25	0x3f2be239	0.67142063
26	0x3ed18f30	0.40929556
27	0x3f11edbd	0.57003385
28	0x3f07f3f5	0.53106624
29	0x3f183709	0.59458977
30	0x3e971c3b	0.29513726
31	0x3ea35a56	0.31904858
32	0x3ed684fd	0.41898337
33	0x3f2cdd38	0.67525053
34	0x3f25a296	0.6470121
35	0x3eb189d5	0.3467547
36	0x3edd675b	0.43242916
37	0x3f02ec21	0.51141554
38	0x3f2e0bea	0.6798693
39	0x3ef8a4bb	0.4856318
40	0x3ea994c7	0.3312132
41	0x3eea5f7a	0.45775968
42	0x3f1736d3	0.5906803
43	0x3ec78932	0.3897186
44	0x3edce7ab	0.431455
45	0x3eba9a77	0.36445972
46	0x3f2da0de	0.6782359
47	0x3f19dcac	0.60102344
48	0x3e75cbdc	0.24003547
49	0x3f10f429	0.5662256
50	0x3e913863	0.28363332
51	0x3f06fc51	0.52728754
52	0x3f191f7a	0.59813654
53	0x3f078abc	0.52946067
54	0x3ec5c447	0.3862631
55	0x3ed0ff56	0.40819806
56	0x3f74288d	0.95374376
57	0x3ed1817f	0.4091911
58	0x3f187c80	0.5956497
59	0x3ea97d82	0.33103567
60	0x3ed6c221	0.41944984
61	0x3e9902c3	0.2988492
62	0x3f0fbf6d	0.5615147
63	0x3ede0b8b	0.43368182

feature_extractor.7.running_var f4 [64]
0	0x3f56fba0	0.839777
1	0x3f29e89c	0.6637056
2	0x3f30147f	0.68781275
3	0x3f81fe12	1.0155661
4	0x3f74fe48	0.957005
5	0x3f1407f1	0.5782462
6	0x3f06e70f	0.5269632
7	0x3f5fa3ec	0.873595
8	0x3eacdd09	0.33762386
9	0x3f46f972	0.77724373
10	0x3f140f10	0.57835484
11	0x3f3c9ffb	0.7368161
12	0x3f9a4795	1.2053095
13	0x3f645e4c	0.89206386
14	0x3f2de0c2	0.6792108
15	0x3fa020da	1.2510026
16	0x3f373399	0.71563107
17	0x3f94a374	1.1612382
18	0x3f250d29	0.64473206
19	0x3f86587b	1.0495752
20	0x3f887523	1.0660747
21	0x400f990c	2.2437162
22	0x3f8a7f2a	1.0820057
23	0x3f101619	0.5628372
24	0x3f486ea5	0.7829383
25	0x3f915f93	1.1357292
26	0x3f41a1e8	0.75637674
27	0x3f5225ed	0.8208912
28	0x3f886782	1.0656588
29	0x3f8ff8df	1.1247824
30	0x3ef8856e	0.485393
31	0x3f0b51ac	0.54421496
32	0x3f5cab35	0.8619874
33	0x3f974152	1.1816809
34	0x3f94c67d	1.1623074
35	0x3f0ccc5e	0.5499934
36	0x3f1d1d69	0.61373
37	0x3f4a23d4	0.7896092
38	0x3faa2026	1.3291061
39	0x3f5433c1	0.8289147
40	0x3f02a48a	0.51032317
41	0x3f291dfe	0.6606139
42	0x3f5f0bb8	0.87127256
43	0x3f2870b4	0.6579697
44	0x3f15077a	0.58214533
45	0x3f05f8ef	0.5233297
46	0x3f524565	0.8213714
47	0x3f691c4e	0.91058815
48	0x3ee79f7e	0.4523887
49	0x3fa59c1b	1.2938265
50	0x3f0454fd	0.5169218
51	0x3f5e3e0a	0.86813414
52	0x3f8d3e3e	1.103462
53	0x3f494012	0.7861339
54	0x3f403c76	0.75092256
55	0x3f255a4a	0.64590895
56	0x3fcac7e6	1.5842254
57	0x3f15acd4	0.5846684
58	0x3f740b51	0.9532977
59	0x3f09f42d	0.5388821
60	0x3f81e5c0	1.0148239
61	0x3f0d14fb	0.5511014
62	0x3f8a000c	1.0781264
63	0x3f362750	0.71153736

feature_extractor.10.weight f4 [128, 64, 3, 3]
0	0xbc7291cd	-0.014805269
1	0x3d585be3	0.052822005
2	0x3cc08525	0.023500988
3	0xbc041cb4	-0.008063484
4	0x3c73928a	0.014866481
5	0x3d42f77f	0.047599312
6	0xbb28a81e	-0.0025734971
7	0x3c57b683	0.013166073
8	0x3db0a827	0.086258225
9	0x3c76f1da	0.01507231
10	0x3cf42791	0.029804023
11	0x3ac7226f	0.0015192757
12	0x3b884d74	0.0041596238
13	0x3c7d7ded	0.015471918
14	0x3d53aaa2	0.0516764
15	0xbb11d829	-0.0022254086
16	0xbd31bd09	-0.04339317
17	0x3d4f8be3	0.050670516
18	0x3cbcfe6b	0.023070535
19	0xbbf364bd	-0.0074277804
20	0xbccdf0da	-0.025139261
21	0xbc01d37e	-0.007923959
22	0xbd2bd5eb	-0.041952055
23	0xbc3919d9	-0.0112976665
24	0xbd721718	-0.059104055
25	0xbd33900a	-0.04383854
26	0xbd4aca48	-0.049509317
27	0xba3b37c3	-0.0007141793
28	0x3c8497eb	0.016185721
29	0xbcf8cab8	-0.030370101
30	0x3cfdc3a2	0.030977074
31	0x3c9d4bdd	0.019201213
32	0xbd6b68f5	-0.05747314
33	0x3d2eeb00	0.042704582
34	0x3bd11bdf	0.0063814963
35	0xbbbad2ef	-0.005701415
36	0x3c990f6b	0.01868411
37	0xbbf14b51	-0.0073637147
38	0xbcd6538b	-0.026162883
39	0x3cdfb27f	0.027306793
40	0x3ce4665d	0.027880842
41	0xbd52ecd2	-0.05149538
42	0x3d8979e7	0.06712704
43	0xbc0bb795	-0.008527656
44	0xbd6130b8	-0.054978102
45	0x3d0fbf2e	0.035094433
46	0x3c2f0b45	0.010683839
47	0xbcafa817	-0.021442456
48	0xbd2da881	-0.042397026
49	0x3a81437e	0.0009862033
50	0xbd733aac	-0.059382126
51	0xbd6d7a8a	-0.05797819
52	0xbcf2e25f	-0.029648958
53	0x3bfbf921	0.0076896106
54	0xbc83b54c	-0.01607766
55	0xb849d507	-4.812053e-05
56	0xbd962eaa	-0.07333119
57	0x3d263899	0.04058132
58	0xbd1932d2	-0.03740198
59	0xbda041fc	-0.078250855
60	0xbd52ab5d	-0.051432956
61	0x3c327c5e	0.010893909
62	0x3c4e68cd	0.012598229
63	0x3ccbc886	0.02487589
64	0xbcbec199	-0.023285674
65	0x3c909138	0.01764737
66	0xbc97f9ff	-0.018551825
67	0xbcf8fd62	-0.03039426
68	0x3bd75601	0.0065715318
69	0x3c6d2afa	0.014475578
70	0x3d353939	0.044244025
71	0xbcd1b13f	-0.025597213
72	0xbd85b938	-0.06529468
73	0xbc867420	-0.016412795
74	0xbd1d5980	-0.038415432
75	0xbd0999e1	-0.033594016
76	0x3cdadc51	0.026716383
77	0xbc8b70d5	-0.017021576
78	0xbd39616c	-0.045258924
79	0xbc4b0801	-0.012392045
80	0xbd35659d	-0.04428636
81	0xbaa2716e	-0.0012393424
82	0x3aa77402	0.0012775662
83	0xbd59dd29	-0.05318943
84	0xbd5536da	-0.052054264
85	0xbd34dd87	-0.044156577
86	0xbbaeeecd	-0.005338526
87	0xbce4a60d	-0.02791121
88	0xbdafb88d	-0.08580122
89	0x3be31b93	0.0069307773
90	0x3be724e1	0.007053957
91	0xbd361d84	-0.044461742
92	0x3ce8e964	0.028431602
93	0x3cb7032c	0.02234038
94	0x3d1e8c04	0.038707748
95	0xbbd0394b	-0.006354486
96	0xbcf67ddd	-0.030089313
97	0xba9b3f2e	-0.001184439
98	0x3d56eaa8	0.05246988
99	0x3b78f59d	0.0037988194
100	0x3d91d392	0.07120432
101	0x3d4377a2	0.047721513
102	0xbcaaf03e	-0.02086651
103	0x3d3beae0	0.04587829
104	0x3a690c98	0.0008890121
105	0xbc4cc869	-0.012498953
106	0xbd171fee	-0.036895685
107	0x3c182a50	0.009287432
108	0x3c16833e	0.009186564
109	0x3d0a0f2e	0.033705883
110	0x3ca1bf06	0.019744407
111	0xbaa9924a	-0.0012937274
112	0xbd13a937	-0.036050048
113	0xbc75fa2d	-0.01501326
114	0xbbc3b398	-0.005972337
115	0xbce2b23d	-0.027672881
116	0x3b5623c7	0.0032675134
117	0xbd76e5e3	-0.06027783
118	0x3bfdda66	0.0077469824
119	0xbbf86c90	-0.007581301
120	0xbcc8453d	-0.024447078
121	0xbb600328	-0.0034181569
122	0x3d0eb92f	0.034844574
123	0x3d1a5e06	0.037687324
124	0x3b7edabd	0.0038887702
125	0x3d8333b5	0.06406347
126	0x3c0aff78	0.00848376
127	0x3ca6a9fd	0.020344729
128	0xbd1e3896	-0.038628183
129	0x3c4aa296	0.012367865
130	0xbd88706b	-0.06662067
131	0xbc319c89	-0.010840544
132	0x3b328aa9	0.0027243292
133	0x3d147a5f	0.036249515
134	0xbd38d10c	-0.045121238
135	0x3d331815	0.04372414
136	0x3c562db3	0.013072419
137	0x3b34252f	0.0027487983
138	0x3d0be276	0.034151517
139	0xbd56afef	-0.052413877
140	0xbc69dc1e	-0.014273671
141	0x3d84494c	0.06459293
142	0xbd629c79	-0.055325005
143	0xbd1beeb3	-0.03806944
144	0xbb4537cb	-0.003009307
145	0x3c089867	0.008337117
146	0xbb8a691f	-0.004223957
147	0xbd06bfe4	-0.032897845
148	0x3cc088c2	0.023502711
149	0x3c57acb8	0.013163738
150	0x3c26ffd3	0.010192829
151	0x3cef3f48	0.02920498
152	0x3c846bfb	0.01616477
153	0x3d9c6076	0.07635586
154	0x3c89ba36	0.016812425
155	0x3b739229	0.0037165976
156	0xbc7e4682	-0.01551974
157	0xbb35df84	-0.0027751634
158	0xbcdcbedf	-0.026946483
159	0xbcb4f935	-0.022091487
160	0xbd0f8964	-0.035043135
161	0x3ca53764	0.020168014
162	0x3c9c86c6	0.019107234
163	0x3d3fc149	0.04681519
164	0x3ca50c3c	0.020147435
165	0xbd238ed7	-0.039931145
166	0x3ce76bd0	0.028249651
167	0xbb916463	-0.004437016
168	0xbd75826d	-0.059938837
169	0x3b014772	0.0019726423
170	0xbcb4373a	-0.02199899
171	0xbcf2ed14	-0.029654063
172	0x3ca5a394	0.020219602
173	0x3c981bc9	0.018567936
174	0x3b83c0e5	0.0040207976
175	0xbce0c5c7	-0.027438058
176	0xbd172f2c	-0.03691022
177	0x3d74613a	0.059663035
178	0xbd4ae336	-0.04953309
179	0xbdbe02e1	-0.09277893
180	0xbc877b28	-0.016538218
181	0x3c5d35aa	0.013501564
182	0xbad96279	-0.0016585133
183	0xbd1e2686	-0.038610958
184	0xbb666380	-0.0035154521
185	0x3b8602df	0.0040896977
186	0xbc69abcc	-0.014262151
187	0xbcca2886	-0.024677526
188	0x3c1a4d86	0.009417897
189	0xbcb10746	-0.021609914
190	0x3c9bc563	0.01901502
191	0x3cbd62bf	0.023118375
192	0x3d0db4d9	0.034596298
193	0x3ccbbda6	0.024870705
194	0xbc92d9ad	-0.017926062
195	0xbca4df79	-0.020126091
196	0xbcd8a3a5	-0.02644522
197	0xbb634604	-0.0034679184
198	0xbd2d7533	-0.042348098
199	0xbd8b8cdc	-0.06813976
200	0xbab0145f	-0.0013433805
201	0x3c897596	0.016779702
202	0xbb6c4323	-0.0036050759
203	0x3cae9cf1	0.02131507
204	0x3cb172e9	0.021661239
205	0xbc64ad2b	-0.013957302
206	0x3cbec44e	0.023286965
207	0xbac642a8	-0.0015126066
208	0x3c1f8b72	0.009737836
209	0x3cbcbcc1	0.023039224
210	0xbce58e89	-0.028022068
211	0x3cc1ea68	0.023671344
212	0x3cd3f618	0.025874183
213	0xbc67b700	-0.014142752
214	0x3bf4201c	0.007450117
215	0x3d8dc4b2	0.06922282
216	0x3d6d8452	0.05798752
217	0x3d0bf263	0.034166705
218	0x3d03de7c	0.0321946
219	0x3cb558f4	0.022137143
220	0x3d7cce24	0.06172003
221	0x3d4a2f8e	0.049361758
222	0xbb041631	-0.0020154829
223	0xbc8f428d	-0.017487789
224	0x3cda1299	0.026620196
225	0xbcac9bf6	-0.021070462
226	0xbc8e08bd	-0.017338151
227	0x3c8cdd29	0.017195301
228	0xbd181cc6	-0.037136815
229	0xbc6c9abb	-0.0144411875
230	0x3d2c1f9e	0.04202234
231	0xbd0bdd82	-0.034146793
232	0x3bafc027	0.0053634825
233	0x3d761c69	0.060085688
234	0xbb30805c	-0.0026931977
235	0xbbcd38d2	-0.006262877
236	0xbc1459bd	-0.009054598
237	0x3d36cc6b	0.044628542
238	0x3c348771	0.01101862
239	0xbc83e855	-0.016101995
240	0xbc684190	-0.014175788
241	0xbce7d6db	-0.028300693
242	0xbb29758b	-0.0025857415
243	0xbcc26ce8	-0.023733571
244	0xbc86542a	-0.016397554
245	0xbc46037e	-0.012085794
246	0xbd590f43	-0.05299307
247	0xbd1a94e9	-0.037739668
248	0x3c5eae5d	0.013591376
249	0xbd06bfec	-0.032897875
250	0xbd29f09b	-0.041489225
251	0x3c4b8120	0.0124209225
252	0x3b1fd133	0.0024386167
253	0x3b9b748f	0.0047441195
254	0x3cbbf2b0	0.02294287
255	0x3b9819d5	0.0046417513

feature_extractor.10.bias f4 [128]
0	0xbd2825e3	-0.041051757
1	0xbbd46bf5	-0.006482596
2	0xbd18b8d2	-0.037285633
3	0xbbf644ca	-0.0075155245
4	0xbb429d82	-0.0029695933
5	0xbd3992d8	-0.045306057
6	0x3d0fcf38	0.03510973
7	0xbdae487d	-0.0850992
8	0xbcf946b4	-0.030429222
9	0x3cc8586b	0.024456223
10	0xbcd2ad78	-0.025717482
11	0xbcca4d29	-0.024694996
12	0xbc466556	-0.012109121
13	0xbbf64b90	-0.007516332
14	0xbd3abb51	-0.045588795
15	0xbd0f4b6b	-0.034984034
16	0xbcbf8fcf	-0.023384003
17	0xbd15934e	-0.036517434
18	0x3cc9d736	0.024638753
19	0xbd6818b9	-0.056664202
20	0xbd2c8e18	-0.0421277
21	0xbd93f99e	-0.07225345
22	0xbd3a8fc0	-0.045547247
23	0x3ccdf334	0.025140382
24	0xbc80e6a8	-0.015734985
25	0xbd622c9d	-0.055218328
26	0xbcba0249	-0.022706168
27	0xbd0b8a7c	-0.034067616
28	0xbc9c2d87	-0.019064678
29	0xbd4ab5df	-0.049489852
30	0xbd33fa91	-0.04394013
31	0xbc7a4a6c	-0.015276533
32	0xbc3491b6	-0.011021068
33	0xbc29dfe3	-0.01036832
34	0xbd074aa1	-0.033030156
35	0x3d2339b2	0.039849944
36	0xbd0fb586	-0.035085224
37	0xbd09f536	-0.033681117
38	0xbcb7e70c	-0.022449039
39	0xbcdcaccc	-0.026937865
40	0x3cc6f84e	0.024288323
41	0xbce3d6e1	-0.027812423
42	0x3c8818a4	0.016613312
43	0xbce6f774	-0.028194167
44	0xbd98b838	-0.07457012
45	0xbd01754b	-0.031606
46	0xbd1056a5	-0.03523888
47	0x3cc800b6	0.024414402
48	0x3b693203	0.0035582788
49	0xbc8acdf3	-0.016943907
50	0xbba1727e	-0.0049269786
51	0x3cd4d6ef	0.025981395
52	0x3ccc2707	0.024920953
53	0x3ca94387	0.020662082
54	0x3c4ee1fe	0.012627123
55	0xbd63b73a	-0.05559466
56	0x3bc8d38e	0.006128735
57	0x3c03afad	0.00803749
58	0xbc20dbe3	-0.00981805
59	0x3c131dd0	0.008979276
60	0x3c9f691b	0.019459298
61	0xbd0a22ed	-0.033724714
62	0xbca7739e	-0.020440873
63	0xbb7cb244	-0.0038558403
64	0x3b310af3	0.0027014583
65	0xbd077bfb	-0.03307722
66	0xbd09efdc	-0.033676013
67	0xbd509a77	-0.05092856
68	0xbd010905	-0.031502742
69	0xbd28d4de	-0.04121863
70	0xbd28755a	-0.04112754
71	0x3c40de30	0.011771724
72	0x3c929bc2	0.017896537
73	0xbca65db3	-0.020308351
74	0xbce5fb84	-0.028074034
75	0xbcf853a5	-0.030313322
76	0xbd396464	-0.045261756
77	0x3c995cb3	0.01872096
78	0xbcb6b4e7	-0.022303058
79	0xbcdbb5a6	-0.026820015
80	0xbcc5c033	-0.0241395
81	0xbc3793fc	-0.011204716
82	0x3d11a5f7	0.035558667
83	0xbc302078	-0.010749929
84	0x3cf58af1	0.029973479
85	0xbcd0d41e	-0.02549177
86	0xbbd7a2a9	-0.00658067
87	0xbd6430ce	-0.055710606
88	0xbd86d7d2	-0.06584133
89	0x3ca91088	0.020637766
90	0xbd1b999b	-0.037988286
91	0xbc8cc891	-0.017185481
92	0xbd178880	-0.03699541
93	0xbc9fdb02	-0.01951361
94	0xbc058768	-0.008149959
95	0xbd201afb	-0.03908823
96	0xbc2b7ae0	-0.010466307
97	0xbca732b7	-0.020409925
98	0x3c589f50	0.013221577
99	0x3c470776	0.012147775
100	0xbd3b249b	-0.045689207
101	0x3d0a10b4	0.033707336
102	0x3b7de9dd	0.003874413
103	0xbb0e37f9	-0.0021700843
104	0x3cfe69a8	0.03105624
105	0xbcf36a6f	-0.029713837
106	0xbd80914a	-0.06277712
107	0x3cd4bb95	0.025968352
108	0x3ca1c956	0.019749325
109	0xbd0e822a	-0.034792103
110	0x3d132fc7	0.035934236
111	0x3ae3e0e4	0.0017385748
112	0xbaacc097	-0.0013179955
113	0x3c953ee7	0.01821847
114	0x3c2a0159	0.010376298
115	0x3b2c78fa	0.0026317225
116	0xbcf4b1a5	-0.029869864
117	0xbd413f37	-0.047179427
118	0x3d0f5632	0.03499431
119	0xbd4954a0	-0.04915297
120	0xbd461ab3	-0.048365306
121	0xbd8772f0	-0.066137195
122	0xbcf3ad62	-0.029745761
123	0xbd5ccdd8	-0.053907245
124	0xbcfcd302	-0.030862335
125	0x3bf8d53a	0.007593778
126	0x3cb7f16a	0.022453982
127	0xbd5854f9	-0.05281541

feature_extractor.12.weight f4 [128]
0	0x3f833812	1.0251486
1	0x3f80599a	1.0027344
2	0x3f835ef6	1.0263355
3	0x3f79696c	0.97426486
4	0x3f7ae279	0.9800182
5	0x3f727e60	0.9472408
6	0x3f73ba17	0.95205826
7	0x3f806fa4	1.003407
8	0x3f80fe4c	1.0077605
9	0x3f73575d	0.9505518
10	0x3f6dd230	0.92898846
11	0x3f828590	1.019701
12	0x3f75f465	0.9607604
13	0x3f80f62e	1.0075128
14	0x3f804b40	1.0022964
15	0x3f74ad8c	0.9557731
16	0x3f7a5a25	0.977938
17	0x3f801ecb	1.0009397
18	0x3f739785	0.95153075
19	0x3f83b02f	1.0288142
20	0x3f717f34	0.9433472
21	0x3f787f8b	0.97069615
22	0x3f7999f3	0.9750053
23	0x3f77a4d3	0.96735877
24	0x3f7aeb05	0.9801486
25	0x3f7a3420	0.97735786
26	0x3f81ae40	1.0131302
27	0x3f76184f	0.9613084
28	0x3f7d5fb9	0.98974186
29	0x3f808478	1.0040426
30	0x3f83935c	1.0279346
31	0x3f795232	0.97391045
32	0x3f7fb541	0.99885947
33	0x3f750655	0.95712787
34	0x3f7d2b80	0.988945
35	0x3f846a05	1.0344855
36	0x3f7849f3	0.9698784
37	0x3f748158	0.9550986
38	0x3f7fee89	0.9997335
39	0x3f7054a2	0.9387914
40	0x3f7958eb	0.97401303
41	0x3f8098ef	1.0046672
42	0x3f8054dc	1.0025897
43	0x3f80c571	1.0060254
44	0x3f78bea0	0.9716587
45	0x3f7ebc0a	0.99505675
46	0x3f89d890	1.0769215
47	0x3f6eedf5	0.93331844
48	0x3f74ebb2	0.9567214
49	0x3f7dab56	0.9908956
50	0x3f83b6bc	1.0290141
51	0x3f6edb4d	0.93303376
52	0x3f7c6073	0.9858467
53	0x3f8057e2	1.002682
54	0x3f81d6f1	1.014372
55	0x3f77c7cf	0.9678926
56	0x3f82a54c	1.0206695
57	0x3f755740	0.9583626
58	0x3f74892d	0.95521814
59	0x3f7166df	0.94297594
60	0x3f787803	0.97058123
61	0x3f71eba6	0.94500196
62	0x3f7665d8	0.9624915
63	0x3f7fb9c2	0.9989282
64	0x3f85e37e	1.046005
65	0x3f7c093b	0.98451585
66	0x3f7bf7a3	0.9842474
67	0x3f826eb1	1.019003
68	0x3f788463	0.97077006
69	0x3f810c2f	1.0081843
70	0x3f7fc623	0.9991171
71	0x3f7a27c4	0.9771693
72	0x3f794ee4	0.97386
73	0x3f828de1	1.0199548
74	0x3f79c7dd	0.9757059
75	0x3f78d5b3	0.9720108
76	0x3f83ffef	1.031248
77	0x3f791071	0.9729071
78	0x3f841d2b	1.0321401
79	0x3f8067de	1.0031698
80	0x3f771b0e	0.9652566
81	0x3f7de447	0.9917645
82	0x3f72b80a	0.9481207
83	0x3f7d25b5	0.9888566
84	0x3f7ca359	0.9868675
85	0x3f75a8e7	0.9596085
86	0x3f8014cb	1.0006346
87	0x3f78a0da	0.9712044
88	0x3f7edb65	0.9955352
89	0x3f74a087	0.95557445
90	0x3f817afa	1.0115654
91	0x3f708b4e	0.9396256
92	0x3f76301a	0.9616715
93	0x3f81ab71	1.0130445
94	0x3f7bb003	0.9831545
95	0x3f7d3814	0.98913693
96	0x3f80aa95	1.0052058
97	0x3f731f31	0.9496947
98	0x3f7ac309	0.9795385
99	0x3f7610f7	0.96119636
100	0x3f7dda9c	0.99161696
101	0x3f705575	0.938804
102	0x3f7988ab	0.97474164
103	0x3f7ca075	0.9868234
104	0x3f76c2a5	0.96390754
105	0x3f75870c	0.9590919
106	0x3f7917b3	0.9730179
107	0x3f7c1b23	0.9847891
108	0x3f7287db	0.9473855
109	0x3f7d6236	0.98977983
110	0x3f815b86	1.0106056
111	0x3f7c322a	0.98514044
112	0x3f76f12b	0.96461743
113	0x3f76a45d	0.9634455
114	0x3f800e13	1.0004295
115	0x3f81fd30	1.0155392
116	0x3f782aea	0.9694048
117	0x3f6de413	0.9292614
118	0x3f730c81	0.94940954
119	0x3f7b9292	0.98270524
120	0x3f7d7f0c	0.99021983
121	0x3f7bf247	0.9841656
122	0x3f8280ae	1.019552
123	0x3f76be73	0.9638435
124	0x3f7d017d	0.98830396
125	0x3f751025	0.9572776
126	0x3f71681b	0.9429948
127	0x3f7e35a2	0.9930059

feature_extractor.12.bias f4 [128]
0	0xbd8b6701	-0.06806756
1	0xbd82ce43	-0.063869976
2	0xbd82d596	-0.063883945
3	0xbd5f877c	-0.054572567
4	0xbdc2a658	-0.09504384
5	0xbdaa83e1	-0.08325935
6	0xbcf5671d	-0.029956395
7	0xbdcb817d	-0.09936807
8	0xbda7c711	-0.08192266
9	0xbdb750af	-0.08950936
10	0xbda6304d	-0.081146814
11	0xbd93b100	-0.072114944
12	0xbd91fad1	-0.071279176
13	0xbd5f067b	-0.05444954
14	0xbd900ba7	-0.070334725
15	0xbd8d2c93	-0.068932675
16	0xbd5ea45c	-0.054355964
17	0xbd98ab0f	-0.07454502
18	0xbd84ac5b	-0.06478187
19	0xbd2ea729	-0.042639885
20	0xbdc3ca83	-0.095601104
21	0xbdb180b4	-0.08667126
22	0xbdad84b4	-0.08472577
23	0xbd1bcbbb	-0.03803609
24	0xbd8e73ec	-0.06955704
25	0xbd2b853c	-0.04187511
26	0xbd9ec58c	-0.07752523
27	0xbd93e3f8	-0.07221216
28	0xbd89e614	-0.06733337
29	0xbd44f532	-0.0480854
30	0xbda88ff7	-0.08230584
31	0xbda7f852	-0.0820166
32	0xbd0236c6	-0.031790517
33	0xbd97f6cd	-0.074201204
34	0xbd9e3d91	-0.077265866
35	0xbcb464fb	-0.022020807
36	0xbd75db58	-0.060023636
37	0xbd9b3356	-0.07578151
38	0xbd314893	-0.043282103
39	0xbdbba5c6	-0.09162478
40	0xbd0fcb4b	-0.035105985
41	0xbd190d8e	-0.037366442
42	0xbd268843	-0.040657293
43	0xbd8b0251	-0.06787551
44	0xbd69178d	-0.056907225
45	0xbd59601d	-0.053070176
46	0xbd4ecc02	-0.050487526
47	0xbdbf2809	-0.09333808
48	0xbd54b54d	-0.051930714
49	0xbd999cf5	-0.0750064
50	0xbd8d28cb	-0.06892546
51	0xbda4ab5c	-0.08040497
52	0xbd87c319	-0.06629009
53	0xbd92009e	-0.07129024
54	0xbd7464ca	-0.059666432
55	0xbd9dd02f	-0.077057235
56	0xbd839136	-0.06424181
57	0xbd84c0d8	-0.064820945
58	0xbd507998	-0.05089721
59	0xbdb5cb4c	-0.088766664
60	0xbdc17fef	-0.094482295
61	0xbd9f96cf	-0.07792436
62	0xbd17a1b0	-0.03701943
63	0xbd50ae09	-0.050947223
64	0xbd9d4737	-0.07679599
65	0xbd9fdbaf	-0.07805573
66	0xbd99730c	-0.074926466
67	0xbd9dfc3d	-0.07714126
68	0xbd77969a	-0.06044636
69	0xbdb98e5b	-0.09060355
70	0xbd870ad8	-0.06593865
71	0xbdab90bd	-0.08377216
72	0xbd6b80ae	-0.057495765
73	0xbd872ac3	-0.06599953
74	0xbd7e12b5	-0.06202956
75	0xbd74ae11	-0.059736315
76	0xbd996572	-0.07490052
77	0xbda3b32c	-0.07993159
78	0xbd97a44a	-0.074043825
79	0xbdab630f	-0.08368503
80	0xbda86f91	-0.082244046
81	0xbd666754	-0.056250885
82	0xbdb4c4a5	-0.088265695
83	0xbd2594a4	-0.040424958
84	0xbd09c894	-0.03363855
85	0xbd622112	-0.05520732
86	0xbd9eeb2a	-0.07759698
87	0xbdad6599	-0.08466644
88	0xbda2e845	-0.07954458
89	0xbdbce374	-0.09223071
90	0xbd864d33	-0.06557693
91	0xbd9ffe9c	-0.07812235
92	0xbdbfc38c	-0.093634695
93	0xbd83ac02	-0.06429292
94	0xbda771fc	-0.08176038
95	0xbd96110b	-0.073274694
96	0xbd7cc0ae	-0.06170719
97	0xbdb32084	-0.08746436
98	0xbd90381b	-0.07041951
99	0xbd8a8277	-0.067631654
100	0xbd757932	-0.059930034
101	0xbdb854bf	-0.09000539
102	0xbd7fb661	-0.06242979
103	0xbd8cb7d1	-0.06870998
104	0xbda26c4b	-0.079308115
105	0xbd91b786	-0.071150824
106	0xbd6cf378	-0.057849377
107	0xbd7c1d60	-0.06155145
108	0xbd8b67d1	-0.06806911
109	0xbda5f377	-0.08103078
110	0xbd5c2168	-0.053742796
111	0xbda5bd7a	-0.080927804
112	0xbda7a820	-0.08186364
113	0xbd3b3592	-0.045705386
114	0xbda0f670	-0.07859504
115	0xbdbac120	-0.09118867
116	0xbd7a5d71	-0.06112427
117	0xbda2509c	-0.07925531
118	0xbdab16c3	-0.08353951
119	0xbda76cbb	-0.081750356
120	0xbd7da7c7	-0.061927583
121	0xbdb5e6c3	-0.08881905
122	0xbd0d02af	-0.034426387
123	0xbda53c1f	-0.08068108
124	0xbd92140a	-0.071327284
125	0xbdd4fe88	-0.104001105
126	0xbd836583	-0.06415846
127	0xbd8ef8ec	-0.06981072

feature_extractor.12.running_mean f4 [128]
0	0x3e358cb2	0.17729452
1	0x3e4ae340	0.19813251
2	0x3d5debba	0.054179884
3	0x3e1f5435	0.15559466
4	0x3e96a030	0.29419088
5	0x3d1e0876	0.038582288
6	0x3d887478	0.0666284
7	0x3e3b9bd0	0.18321157
8	0x3d9d24fd	0.076730706
9	0x3ebb2b0f	0.3655629
10	0x3f858c28	1.0433397
11	0x3e0d86fe	0.13821027
12	0x3e2ccc41	0.16874792
13	0x3e78a915	0.2428325
14	0x3dff571b	0.12467786
15	0x3e012be4	0.12614399
16	0x3e830503	0.2558976
17	0x3e002466	0.12513885
18	0x3ebbbe62	0.36668688
19	0x3d983add	0.07433102
20	0x3eea647a	0.45779783
21	0x3e478147	0.19482909
22	0x3e1e0674	0.15432149
23	0x3cea3c07	0.028593076
24	0x3e03d41b	0.1287388
25	0x3df5bfbd	0.11999462
26	0x3e4af4a8	0.19819891
27	0x3ea43367	0.32070467
28	0x3dc608b2	0.09669627
29	0x3dced16b	0.10098537
30	0x3dfcf116	0.12350671
31	0x3dbf277a	0.093337014
32	0x3e7b8eec	0.24566239
33	0x3ea453ca	0.32095176
34	0x3de00d58	0.10940045
35	0x3d90ef43	0.070768856
36	0x3e2af8d9	0.1669649
37	0x3ec721d2	0.3889299
38	0x3e83c2dc	0.25734603
39	0x3f03b8fe	0.5145415
40	0x3e062507	0.13100062
41	0x3ca40ee2	0.020026628
42	0x3e17ab6e	0.14811489
43	0x3dd98346	0.106207415
44	0x3d07c103	0.033143055
45	0x3d1b961b	0.03798495
46	0x3df048f9	0.117326684
47	0x3e3a6079	0.18200864
48	0x3df6f760	0.12058902
49	0x3de7c837	0.11317485
50	0x3d640b79	0.055675004
51	0x3f8f8622	1.1212809
52	0x3e31db7c	0.17368883
53	0x3d482905	0.048867244
54	0x3e28d211	0.16486384
55	0x3e0b8c43	0.13627724
56	0x3e8b6390	0.27224398
57	0x3e7e5fd4	0.24841243
58	0x3d9e333c	0.07724616
59	0x3f0f75bb	0.5603902
60	0x3eaccee4	0.33751595
61	0x3e10aef1	0.14129235
62	0x3dff8f17	0.12478464
63	0x3e6bbd97	0.23021542
64	0x3e2998f5	0.16562255
65	0x3e035303	0.12824635
66	0x3dabdcc4	0.08391717
67	0x3e2a7d9c	0.16649479
68	0x3d82fadd	0.063955046
69	0x3d81f1cb	0.063449465
70	0x3e366fb0	0.17816043
71	0x3e609efc	0.21935648
72	0x3e640821	0.22268726
73	0x3dd496b5	0.103803076
74	0x3e5d84b0	0.21632648
75	0x3dffd201	0.12491227
76	0x3cf3c69b	0.029757788
77	0x3e8c7a41	0.27437022
78	0x3d8cb15a	0.068697646
79	0x3db97b99	0.090567775
80	0x3d993a3f	0.07481813
81	0x3dd3a9f8	0.10335153
82	0x3f97485d	1.1818959
83	0x3dc148a7	0.094376855
84	0x3dc0957a	0.094035104
85	0x3e09b175	0.134466
86	0x3e0b5aed	0.13608904
87	0x3da6ad72	0.08138551
88	0x3e2bb53a	0.16768351
89	0x3f6c75c0	0.9236717
90	0x3d2bb06e	0.041916303
91	0x3e4c8dae	0.19975922
92	0x3f1372da	0.57597125
93	0x3dcb3d18	0.09923762
94	0x3e1f4be6	0.15556297
95	0x3d946b7b	0.07247063
96	0x3e707aaa	0.23484293
97	0x3e7e8863	0.24856715
98	0x3dc5c523	0.096567415
99	0x3e5feae5	0.21866949
100	0x3e831324	0.2560054
101	0x3fda765f	1.7067374
102	0x3e715106	0.23566064
103	0x3d83a06f	0.06427085
104	0x3ea2162f	0.3165755
105	0x3f0b84d8	0.5449958
106	0x3d7b9be7	0.061427977
107	0x3e0b1864	0.13583523
108	0x3ec8a34c	0.39187086
109	0x3e847cb0	0.2587638
110	0x3dc96131	0.09832991
111	0x3e755e20	0.23961687
112	0x3e0d2817	0.13784824
113	0x3dc4c22f	0.0960735
114	0x3e16a4cb	0.14711301
115	0x3dd063e1	0.101753004
116	0x3db8082d	0.089859344
117	0x3e4370ae	0.19085953
118	0x3f0b3e3d	0.54391843
119	0x3d92bae6	0.07164554
120	0x3e81c862	0.25348192
121	0x3ee7eb08	0.45296502
122	0x3dce4163	0.10071065
123	0x3ec86318	0.39138103
124	0x3df04afc	0.11733052
125	0x3f99d415	1.2017847
126	0x3e919c66	0.28439635
127	0x3e273878	0.16330135

feature_extractor.12.running_var f4 [128]
0	0x3ee0e816	0.43927068
1	0x3eac038a	0.3359645
2	0x3e235f32	0.15954283
3	0x3e896413	0.26834163
4	0x3f099f01	0.53758246
5	0x3db176d8	0.08665246
6	0x3e083088	0.13299763
7	0x3ea0519a	0.31312257
8	0x3e283d34	0.16429597
9	0x3f0ae13d	0.54249936
10	0x3fad3d71	1.3534375
11	0x3e9aaa6c	0.30208147
12	0x3e878885	0.26471344
13	0x3f00dac2	0.503338
14	0x3e664de7	0.22490655
15	0x3e844ba8	0.2583897
16	0x3edbaf72	0.42907292
17	0x3e847e29	0.25877503
18	0x3f1fc1ae	0.62404907
19	0x3e217fb9	0.15771379
20	0x3f30909e	0.6897067
21	0x3ea62e6b	0.3245729
22	0x3e9c4fb7	0.30529568
23	0x3db84ad3	0.089986466
24	0x3e81d45a	0.25357324
25	0x3e84f900	0.25971222
26	0x3ec7e3ed	0.3904108
27	0x3ee79530	0.4523101
28	0x3e40575d	0.18783326
29	0x3e401941	0.18759634
30	0x3e83b536	0.2572419
31	0x3e573029	0.21014465
32	0x3ee62799	0.44952086
33	0x3f00eb76	0.50359285
34	0x3e5da9e9	0.21646847
35	0x3e2479e8	0.16062129
36	0x3e927d97	0.28611442
37	0x3f227b43	0.6346933
38	0x3ed97922	0.4247523
39	0x3f36fa86	0.7147602
40	0x3e58824f	0.21143459
41	0x3dbb49e7	0.09144955
42	0x3e892b29	0.2679074
43	0x3e8a3c31	0.26999047
44	0x3ddf9e37	0.10918849
45	0x3dcd96fe	0.10038565
46	0x3e9ab183	0.30213556
47	0x3e80def2	0.25170094
48	0x3e5b884c	0.21438712
49	0x3e7f1414	0.24910003
50	0x3e14c5f2	0.14528635
51	0x3f9f9d04	1.2469792
52	0x3e8281d0	0.25489664
53	0x3e0043ac	0.12525815
54	0x3eb844bb	0.35989937
55	0x3e68eb92	0.22746113
56	0x3f0173e6	0.5056747
57	0x3eaa32f6	0.33242005
58	0x3e15a9b6	0.14615521
59	0x3f3de99a	0.7418457
60	0x3eff9eba	0.49925786
61	0x3e643145	0.2228442
62	0x3e82af10	0.25524187
63	0x3eed45ed	0.46342412
64	0x3eb75426	0.35806388
65	0x3e59d8ae	0.21274063
66	0x3e174b30	0.14774776
67	0x3e9e48c6	0.30914897
68	0x3e049b91	0.12949969
69	0x3e3130e8	0.17303813
70	0x3eb3cf01	0.3511887
71	0x3ec7de5b	0.3903683
72	0x3ebf43e7	0.37356493
73	0x3e6e1475	0.23249991
74	0x3ec3010e	0.38086742
75	0x3e66901b	0.2251591
76	0x3dfa247f	0.12213992
77	0x3ee570cf	0.4481263
78	0x3e414ad9	0.18876208
79	0x3e371f84	0.17883116
80	0x3e196916	0.14981493
81	0x3e285bdb	0.1644129
82	0x3fce044a	1.6095059
83	0x3e45c375	0.19312842
84	0x3e3d0cc5	0.18461902
85	0x3e745607	0.23860942
86	0x3e9f33ae	0.31094116
87	0x3e2f84bd	0.1714048
88	0x3ea249f3	0.31697044
89	0x3fa9c737	1.326392
90	0x3e09a1c2	0.13440612
91	0x3e8e8be3	0.278411
92	0x3f5404dc	0.82819915
93	0x3e5e2ee9	0.21697582
94	0x3e842cba	0.25815374
95	0x3e1174e9	0.14204754
96	0x3f035d28	0.5131402
97	0x3ee6facb	0.45113215
98	0x3e37be04	0.17943579
99	0x3eb7b813	0.35882625
100	0x3f0b2d6f	0.543662
101	0x40131009	2.2978537
102	0x3efb5c2d	0.49093762
103	0x3e08f67d	0.13375278
104	0x3f019656	0.5062002
105	0x3f6526c5	0.8951228
106	0x3e1b6553	0.15175371
107	0x3e80ab91	0.25130895
108	0x3f0f979d	0.5609072
109	0x3ef8b349	0.48574284
110	0x3e498317	0.19678913
111	0x3eea4cdf	0.45761773
112	0x3e461bad	0.19346495
113	0x3e38e5f8	0.18056476
114	0x3e84b7ae	0.25921386
115	0x3e5f4e5f	0.2180724
116	0x3e171a07	0.14756022
117	0x3e9a00a0	0.30078602
118	0x3f29f1fa	0.6638485
119	0x3e0adcc7	0.13560782
120	0x3ee1df43	0.44115648
121	0x3f3ab160	0.729269
122	0x3e7a2daa	0.24431482
123	0x3f31fbe5	0.69524986
124	0x3e6be4f5	0.23036559
125	0x3fb2c4e4	1.3966336
126	0x3ed964e5	0.4245979
127	0x3eb07f8d	0.34472314
